projet/cpp/model/NeuralNetwork.tflite (tflite, 562516 bytes, 6 tensors)

sequential/dense_1/BiasAdd/ReadVariableOp f4 [64]
0.07471244 0.014446018 -0.010647076 0.009459826 -0.016603915 -0.022629589 0.0061637606 -0.03160683
0.0001846402 0.05457403 0.020152966 0.0065432787 0.0075476826 0.020906113 0.003666659 0.025186086
0.0079235835 0.0072597032 -0.011538845 0.030514644 -0.020345327 -0.0058325175 0.023304699 0.014953441
0.023998821 -0.010398743 0.03387832 -0.007701545 -0.022406148 0.016797593 -0.012347077 0.035612486
0.0032410286 -0.010081791 -0.03276222 0.008292979 -0.011560441 -0.0016672506 0.012287179 -0.0044272146
0.028760655 -0.0017666303 0.031106079 0.016764728 0.028247055 0.021567311 -0.009593643 0.054718055
0.056171924 0.005951277 -0.010512763 0.008841571 0.003099542 0.027567584 -0.003973866 -0.025539957
0.0109691685 0.019566724 -0.012204215 -0.003848928 -0.0039056994 0.015081307 0.042424098 0.019510446
00000000: d602 993d feae 6c3c 1371 2ebc 63fd 1a3c
00000010: ef04 88bc b061 b9bc 5ff9 c93b 2a76 01bd
00000020: fa9b 4139 0589 5f3d d517 a53c 0069 d63b
00000030: 8d52 f73b 4c43 ab3c 544c 703b 0d53 ce3c
00000040: ebd1 013c cee2 ed3b 6c0d 3dbc d9f9 f93c
00000050: 3eab a6bc b41e bfbb 7fe9 be3c 47ff 743c
00000060: 2d99 c43c 7d5f 2abc fec3 0a3d 3e5d fcbb
00000070: 198d b7bc 1b9b 893c 654b 4abc 66de 113d
00000080: 7067 543b 192e 25bc ad31 06bd 46df 073c
00000090: 0168 3dbc a687 daba 2a50 493c 2b12 91bb
000000a0: 779b eb3c 478e e7ba 2dd2 fe3c 2f56 893c
000000b0: 5e66 e73c eead b03c a82e 1dbc 0a20 603d
000000c0: 8814 663d ee02 c33b b93d 2cbc 3ddc 103c
000000d0: b021 4b3b 6ad5 e13c 3437 82bb 2c39 d1bc
000000e0: 07b8 333c 654a a03c 30f4 47bc 4c3e 7cbb
000000f0: c3f6 7fbb 9617 773c e4c4 2d3d 5fd4 9f3c

sequential/dense_2/BiasAdd/ReadVariableOp f4 [10]
-0.03474014 -0.055915184 0.042942043 0.031647038 0.021075092 -0.019640667 -0.030225016 0.014432864
0.002718585 0.021025939
00000000: ad4b 0ebd 5207 65bd ffe3 2f3d 53a0 013d
00000010: aca5 ac3c 77e5 a0bc 749a f7bc d277 6c3c
00000020: 4a2a 323b 973e ac3c

sequential/dense/BiasAdd/ReadVariableOp f4 [128]
0.018386725 -0.0018344864 -0.021574333 -0.010951969 0.013860501 0.008443956 0.042634107 0.021417612
0.0013762657 0.04218217 0.015957007 -0.027121905 -0.0044610356 0.017331704 -0.009707692 0.015173331
0.029476821 0.041813493 0.0207954 0.04178993 0.0121950805 -0.026715841 0.012536338 0.012428978
0.027614933 0.010757643 0.023259683 0.012435121 0.0101436805 0.015765626 -0.006311077 0.011268395
0.021810396 0.018181674 0.025494717 -0.026464289 0.05945839 0.012636591 -0.03580276 0.0057678744
0.0054365317 -0.014712611 -0.00066663325 0.04267231 0.03820491 0.03260967 -0.030755984 0.018696051
-0.022992799 0.00012336919 0.04878689 0.022528466 0.016201278 0.036783844 0.016134363 0.032266874
0.03329417 0.044074155 0.023849515 -0.012754664 0.017553383 0.04731362 0.007049475 -0.016832957
0.036192097 0.03794414 -0.019573925 -0.008362147 0.029842269 0.060163777 -0.011276478 -0.031626213
-0.00093889557 0.015073563 -0.008176377 -0.0038772612 -0.02109657 0.03622763 -0.028167238 0.01758261
0.020129154 -0.040600758 0.027687995 -0.028686142 -0.005036714 -0.016888956 0.042156704 -0.0024838399
-0.013997187 0.025124315 -0.011009735 0.026491972 -0.019690488 -0.034404043 -0.0024843053 -0.010006328
0.027359597 -0.008319144 0.009536861 0.007730014 0.018046033 -0.015513457 -0.015039728 0.005741176
0.027128657 0.0052433726 -0.029356675 0.029376362 0.011261317 0.0032092605 0.002601333 0.010935042
0.027693633 0.009889151 0.026444258 0.021145418 0.0068014883 -0.023203028 0.03379239 0.01247064
0.008085099 -0.0044518653 -0.0020655321 0.0036898837 -0.036597475 0.03399277 -0.025225505 -0.006848777
00000000: c29f 963c 2673 f0ba a8bc b0bc e36f 33bc
00000010: 2817 633c 8558 0a3c 1aa1 2e3d fd73 af3c
00000020: d063 b43a 36c7 2c3d 45b8 823c c22e debc
00000030: e12d 92bb 38fb 8d3c 030d 1fbc 9099 783c
00000040: 6079 f13c a044 2b3d 1d5b aa3c eb2b 2b3d
00000050: e0cd 473c 2edb dabc 3665 4d3c eaa2 4b3c
00000060: b638 e23c d340 303c 178b be3c aebc 4b3c
00000070: ae31 263c ea26 813c 27cd cebb 139f 383c
00000080: b7ab b23c bcf1 943c 4cda d03c a3cb d8bc
00000090: a48a 733d b409 4f3c eaa5 12bd 7000 bd3b
000000a0: ef24 b23b 2a0d 71bc 00c1 2eba 29c9 2e3d
000000b0: c07c 1c3d b891 053d f9f3 fbbc 7628 993c
000000c0: 655b bcbc aa5c 0139 c3d4 473d 9e8d b83c
000000d0: 8bb8 843c a8aa 163d 362c 843c 452a 043d
000000e0: 785f 083d 1a87 343d 0f60 c33c f0f8 50bc
000000f0: 1dcc 8f3c edcb 413d 48ff e63b 45e5 89bc
00000100: 2a3e 143d 516b 1b3d 7f59 a0bc 6301 09bc
00000110: c677 f43c 4b6e 763d fac0 38bc 7d8a 01bd
00000120: 3720 76ba 1bf7 763c 36f6 05bc a619 7ebb
00000130: b7d2 acbc 6c63 143d fbbe e6bc 6809 903c
00000140: e5e5 a43c fb4c 26bd efd1 e23c 33ff eabc
00000150: 050b a5bb b55a 8abc 82ac 2c3d ebc7 22bb
00000160: 7554 65bc 82d1 cd3c 2d62 34bc b105 d93c
00000170: f24d a1bc 41eb 0cbd bacf 22bb 95f1 23bc
00000180: 3c21 e03c 054d 08bc 7f40 1c3c 0f4c fd3b
00000190: 46d5 933c 282c 7ebc 3169 76bc 7a20 bc3b
000001a0: eb3c de3c 99d0 ab3b 697d f0bc b2a6 f03c
000001b0: 6381 383c 7552 523b 207b 2a3b e428 333c
000001c0: c2dd e23c 1b06 223c a1a1 d83c 2839 ad3c
000001d0: 05df de3b 4714 bebc e469 0a3d a851 4c3c
000001e0: 5d77 043c f4e0 91bb e15d 07bb fad1 713b
000001f0: 3ce7 15bd 013c 0b3d b8a5 cebc b56b e0bb

sequential/dense/MatMul f4 [128, 1024]
-0.053094327 0.027607052 -0.03202139 -0.0041701784 0.04851125 0.024891993 -0.021485614 -0.04067138
0.013370292 0.057285354 0.037930496 0.03712554 0.03732938 0.042723704 -0.029550433 0.09538851
0.032936573 -0.017114513 -0.047520183 -0.019915294 -0.011046288 -0.03648357 -0.0024601207 0.036901593
-0.060506064 0.03701365 -0.08828927 0.02842005 0.012831351 -0.05022277 0.033547398 0.040690493
-0.050513647 -0.02534058 -0.0040720203 -0.03605781 0.0075815604 0.01636146 -0.043103237 -0.040957775
0.032120414 0.0069699013 0.041762244 -0.020280778 -0.008250794 -0.05660958 0.037506543 0.09591484
-0.04635079 0.067540206 0.018334964 -0.058544938 0.019671606 0.044392426 -0.06515047 0.038759854
-0.02873097 0.020542925 0.027308913 -0.0050757346 -0.049003985 -0.053883404 0.030179985 -0.0018179095
0.010932687 -0.018543828 -0.005943341 0.024253462 -0.029591372 -0.008291078 0.07280364 0.052452583
-0.043627024 0.0770512 -0.06348401 -0.070860304 -0.035964273 -0.02226133 -0.03234654 0.03324698
-0.024072368 0.054420926 0.014966461 -0.04718506 0.065806285 0.025259878 0.043904517 -0.015280664
-0.049026553 0.07896583 -0.0055658934 0.03206157 -0.051630553 0.065045856 -0.011365934 0.04554754
0.032785684 0.029854914 -0.04840045 0.036062222 0.005745847 0.034153037 -0.037495762 -0.0087537905
0.018617107 0.052932993 0.04520041 0.05328633 0.027902713 -0.052452806 0.042193104 -0.032494392
-0.06284576 -0.026566258 0.061982773 -0.040301155 -0.039545923 0.058645435 -0.028771242 0.06299158
0.029177831 0.050593577 -0.06395478 -0.06693821 0.072633885 0.0609091 0.018708523 0.006281724
0.06764195 -0.06578574 -0.032778073 -0.009278737 0.06947219 -0.03668762 0.073352806 0.01408348
0.018040594 -0.02817866 -0.022311052 0.05329859 0.020404778 0.03857658 0.06757903 0.0017444589
-0.066245705 0.055689402 -0.07367205 0.037931867 -0.051824234 0.03555557 0.09198816 0.01623162
0.029158235 0.017146247 0.016050283 0.015582336 0.054020416 -0.025071593 0.070707105 -0.004123797
-0.042242013 0.039698564 -0.0149205 0.05365088 -0.04446505 -0.037770048 -0.011102595 0.030381817
-0.036433853 0.020876564 0.023861878 0.07456058 -0.014443088 0.030220445 0.013809085 -0.00860245
0.062053997 0.048059657 -0.0520731 0.022475995 0.069605105 -0.04086799 -0.011399379 -0.059753258
0.024711918 -0.07054486 -0.001269432 -0.029866178 -0.015639093 -0.06381751 -0.04497723 0.022838665
-0.06153457 -0.039547384 0.010511851 0.0401078 -0.025050798 0.039024606 -0.02807741 -0.0021746056
-0.055853043 -0.038267817 0.052997362 0.031423386 -0.0054975227 -0.005551207 0.06696715 -0.00491313
-0.030494839 0.031006787 -0.018387472 0.048722286 -0.0784496 0.063933596 0.044269457 -0.035434052
-0.039768785 -0.009483232 -0.06664923 -0.01935395 0.04457687 0.049781393 -0.067435324 0.049092967
-0.07537344 0.04724189 -0.07686361 0.033637162 0.03453673 0.053211424 -0.0055160495 -0.010317682
0.02477967 -0.08014665 -0.020157604 0.019408414 -0.054525916 0.0063255955 -0.04554133 0.018392174
0.010712495 0.045948744 -0.023859225 -0.07064238 -0.05895102 0.037748694 -0.005781164 -4.9736733e-05
0.055712197 0.00688045 -0.033284694 -0.015386741 -0.076422274 -0.07754092 -0.017262323 0.00036365213
00000000: 7079 59bd 2f28 e23c dc28 03bd fea5 88bb
00000010: bcb3 463d 4bea cb3c 9902 b0bc 0897 26bd
00000020: 120f 5b3c 0ca4 6a3d 025d 1b3d f310 183d
00000030: b1e6 183d 0dff 2e3d c013 f2bc 0d5b c33d
00000040: 80e8 063d bc33 8cbc 86a4 42bd 6625 a3bc
00000050: 7dfb 34bc cc6f 15bd fa39 21bb 2026 173d
00000060: 35d5 77bd a09b 173d 01d1 b4bd 2ad1 e83c
00000070: 963a 523c 64b6 4dbd ff68 093d 13ab 263d
00000080: 66e7 4ebd 0c97 cfbc 956e 85bb 5bb1 13bd
00000090: bd6e f83b 7808 863c 058d 30bd 57c3 27bd
000000a0: b290 033d c563 e43b e30e 2b3d e023 a6bc
000000b0: 572e 07bc 72df 67bd 76a0 193d 006f c43d
000000c0: 53da 3dbd 8552 8a3d 3533 963c d1cc 6fbd
000000d0: 5926 a13c d5d4 353d 9c6d 85bd a7c2 1e3d
000000e0: 365d ebbc a349 a83c f1b6 df3c 5952 a6bb
000000f0: 67b8 48bd d8b4 5cbd 043c f73c ec46 eeba
00000100: 031f 333c 3ae9 97bc 5cc0 c2bb 32af c63c
00000110: 9b69 f2bc 4dd7 07bc 131a 953d 85d8 563d
00000120: 40b2 32bd 05cd 9d3d e803 82bd 351f 91bd
00000130: 464f 13bd 655d b6bc ce7d 04bd fc2d 083d
00000140: 6a33 c5bc 7ae8 5e3d e335 753c 1f45 41bd
00000150: 72c5 863d ceed ce3c 39d5 333d c05b 7abc
00000160: 11d0 48bd d6b8 a13d 1962 b6bb fe52 033d
00000170: 8f7a 53bd c336 853d 2f38 3abc 0f90 3a3d
00000180: 484a 063d 4b92 f43c 8d3f 46bd fbb5 133d
00000190: a847 bc3b 0ee4 0b3d 2895 19bd 0f6c 0fbc
000001a0: e782 983c 44d0 583d 1124 393d c442 5a3d
000001b0: 3b94 e43c c1d8 56bd add2 2c3d d718 05bd
000001c0: 47b5 80bd 7ba1 d9bc a6e1 7d3d d312 25bd
000001d0: e8fa 21bd 3236 703d abb1 ebbc bb01 813d
000001e0: 5906 ef3c 363b 4f3d b9fa 82bd e616 89bd
000001f0: 13c1 943d d27b 793d 9e42 993c ecd6 cd3b
00000200: dd87 8a3d adba 86bd 4d42 06bd d805 18bc
00000210: 7047 8e3d c245 16bd ff39 963d 66be 663c
00000220: dec9 933c efd6 e6bc abc5 b6bc 9f4f 5a3d
00000230: ec27 a73c 7a02 1e3d e066 8a3d 54a6 e43a
00000240: d4ab 87bd 921a 643d 5fe1 96bd 725e 1b3d
00000250: a645 54bd b8a2 113d 4a64 bc3d 2df8 843c
00000260: 40dd ee3c 4976 8c3c e27b 833c 0e4d 7f3c
00000270: 8344 5d3d f162 cdbc e3ce 903d eb20 87bb
00000280: f605 2dbd f69a 223d 1d75 74bc 06c1 5b3d
00000290: fc20 36bd c4b4 1abd a9e7 35bc 4ae3 f83c
000002a0: aa3b 15bd 5405 ab3c fc79 c33c 38b3 983d
000002b0: b4a2 6cbc de90 f73c 803f 623c 4af1 0cbc
000002c0: 552c 7e3d 34da 443d 9a4a 55bd 941f b83c
000002d0: 1f8d 8e3d 3265 27bd 76c4 3abc d5bf 74bd
000002e0: a670 ca3c d379 90bd 1263 a6ba eaa9 f4bc
000002f0: 8e1d 80bc c1b2 82bd 0b3a 38bd 2718 bb3c
00000300: ac0b 7cbd 70fc 21bd e639 2c3c 1448 243d
00000310: 5537 cdbc 44d8 1f3d 9902 e6bc d483 0ebb
00000320: 29c6 64bd b7be 1cbd c313 593d cfb5 003d
00000330: 9024 b4bb e6e6 b5bb 1326 893d 52fe a0bb
00000340: 50d0 f9bc f201 fe3c 53a1 96bc 0591 473d
00000350: 2faa a0bd 9eef 823d e453 353d 4c23 11bd
00000360: 98e4 22bd 8f5f 1bbc 647f 88bd 2d8c 9ebc
00000370: 3c96 363d 93e7 4b3d 881b 8abd b515 493d
00000380: 645d 9abd b680 413d ab6a 9dbd 1fc7 093d
00000390: 6376 0d3d 39f4 593d fabf b4bb 7f0b 29bc
000003a0: bcfe ca3c ed23 a4bd 8f21 a5bc 65fe 9e3c
000003b0: 9156 5fbd f146 cf3b 8c89 3abd 2fab 963c
000003c0: 7683 2f3c c034 3c3d 6c74 c3bc f4ac 90bd
000003d0: a076 71bd 609e 1a3d eb6f bdbb 699c 50b8
000003e0: 7932 643d 6675 e13b 8855 08bd ab18 7cbc
000003f0: 4883 9cbd c6cd 9ebd b769 8dbc 90a8 be39

sequential/dense_1/MatMul f4 [64, 128]
0.064749904 -0.045839336 -0.16118424 0.12525724 0.1607612 0.14666747 0.0021946349 0.11916266
0.055737514 -0.12306857 0.04396549 -0.099752665 0.06831552 -0.07014223 -0.03047201 0.20196843
0.15293525 0.202675 0.027369574 0.20393935 -0.15222885 -0.08002996 0.09882308 -0.0962205
0.0022823717 -0.01002077 0.13301274 0.11219793 0.024278611 -0.18524687 0.06190676 0.16779026
-0.14651899 0.14096108 -0.03963954 -0.019254223 0.048174914 0.16890629 0.035646964 -0.10207283
0.113049485 0.12297051 0.07514832 0.13271646 0.11164853 -0.0819497 0.0090616 0.08836769
-0.04096675 0.078694984 0.15674455 -0.08878333 -0.12623289 0.06015128 0.014803544 0.2099646
0.060246233 0.097470984 0.10234708 -0.09297204 0.02400601 0.15419628 -0.09960926 -0.0279823
-0.005262411 0.07274562 -0.0029662754 -0.14364144 -0.025282584 0.073292226 0.04115886 -0.11978332
-0.13792044 -0.032365598 -0.021590967 -0.1583768 -0.049447082 0.11667309 -0.01731801 -0.13559976
0.050548393 0.038697794 0.10405032 0.0537665 -0.027920043 0.0347305 0.1347338 -0.0045455247
-0.045355197 0.076798275 0.044345148 0.19174477 0.085634634 -0.037402786 -0.023013031 -0.12995021
-0.027037466 -0.07374672 -0.1928437 -0.123008125 0.14606427 -0.09438427 0.10377968 -0.03220573
-0.13686097 0.040731393 -0.067258485 -0.05598759 -0.10172876 0.13791774 -0.10693238 0.03848893
0.032222256 -0.12811318 -0.11433023 -0.12953724 0.09903234 0.12699416 0.014239763 -0.11211541
-0.15700926 0.056487117 -0.10133162 -0.023436153 -0.09486754 0.10751749 -0.03421943 0.030795269
-0.06965008 -0.039450087 -0.124701224 -0.14577295 -0.047178555 0.17540139 -0.07875236 0.0938202
0.15863273 0.10719561 0.1479185 -0.10657501 0.1801785 0.061444655 -0.11151446 0.02609792
-0.13677704 -0.08368055 -0.14959665 -0.027584242 0.012716748 0.16451912 -0.017633382 -0.0074181915
-0.011090292 -0.1842102 0.10439933 -0.15246615 0.07650297 -0.13499983 0.029499155 -0.077258475
-0.15659137 -0.1865591 0.038699612 -0.011687714 -0.08260247 -0.10009346 -0.09425375 -0.103915714
0.035936862 0.06601072 0.08159035 -0.05209063 0.1250631 0.15510099 -0.12114173 -0.18630882
0.07326566 0.15097107 0.14329736 -0.01556782 -0.034537744 -0.023074135 -0.024997076 -0.1056539
0.16637151 -0.10859178 -0.12075343 -0.12385309 -0.1184327 -0.02018158 0.15909411 -0.16345489
-0.09019701 -0.14424269 0.17575042 0.12371815 0.12662412 0.12808429 0.15931115 0.13927624
0.040644813 -0.12007453 0.06652741 -0.15450704 0.13064264 -0.0748225 0.033563245 0.18204235
0.083133355 0.13604134 0.15074606 -0.060635496 -0.13508333 0.14742805 0.06505679 -0.039966658
-0.12349538 -0.08458015 0.14445035 0.1213036 -0.14867395 0.047615096 -0.06457797 -0.052257277
-0.05177262 -0.08572741 0.14737396 0.14576466 0.10335038 0.084759235 0.019092675 -0.09769937
0.07827304 0.12766829 0.04807772 -0.042276606 0.15560229 -0.15328988 -0.1222748 -0.12127199
-0.17166932 -0.12476523 0.18673576 0.14538555 -0.018166164 0.18684547 0.10957878 0.08705742
-0.11838829 -0.17167133 0.02619045 0.15417111 0.07612859 0.14038584 -0.058161274 0.117692195
00000000: 999b 843d 07c2 3bbd 7b0d 25be 6f43 003e
00000010: 969e 243e ff2f 163e ddd3 0f3b 8d0b f43d
00000020: 054d 643d 600b fcbd 2815 343d 204b ccbd
00000030: 02e9 8b3d bba6 8fbd 70a0 f9bc d0d0 4e3e
00000040: 0f9b 1c3e 098a 4f3e 2836 e03c 7ad5 503e
00000050: e1e1 1bbe bfe6 a3bd c163 ca3d 410f c5bd
00000060: d893 153b 282e 24bc 7e34 083e 07c8 e53d
00000070: f0e3 c63c 5bb1 3dbe f191 7d3d 36d1 2b3e
00000080: 1309 16be 1a58 103e 125d 22bd 08bb 9dbc
00000090: 0f53 453d c5f5 2c3e 8d02 123d 8f0b d1bd
000000a0: 7d86 e73d f6d7 fb3d 5de7 993d d3e6 073e
000000b0: fca7 e43d 3fd5 a7bd 1b77 143c 1ffa b43d
000000c0: c0cc 27bd d62a a13d a581 203e 09d4 b5bd
000000d0: 3243 01be 3061 763d 908a 723c f600 573e
000000e0: c1c4 763d de9e c73d 599b d13d 2068 bebd
000000f0: 40a8 c43c a1e5 1d3e f1ff cbbd 233b e5bc
00000100: 4e70 acbb a8fb 943d d865 42bb be16 13be
00000110: 6c1d cfbc 3c1a 963d 3196 283d f550 f5bd
00000120: 043b 0dbe ca91 04bd 8adf b0bc 872d 22be
00000130: 0689 4abd 4df2 ee3d 80de 8dbc aada 0abe
00000140: d50b 4f3d 9481 1e3d 5618 d53d 433a 5c3d
00000150: 93b8 e4bc 9241 0e3d a8f7 093e a0f2 94bb
00000160: 5fc6 39bd 6a48 9d3d 42a3 353d be58 443e
00000170: 3661 af3d aa33 19bd d385 bcbc ab11 05be
00000180: ad7d ddbc 8508 97bd d278 45be afeb fbbd
00000190: df91 153e 8a4c c1bd 718a d43d 28ea 03bd
000001a0: 4825 0cbe f6d5 263d d1be 89bd 3e53 65bd
000001b0: 2b57 d0bd 4f3a 0d3e 5dff dabd 91a6 1d3d
000001c0: 7cfb 033d 1a30 03be f825 eabd 69a5 04be
000001d0: 78d1 ca3d c20a 023e e54d 693c c49c e5bd
000001e0: 09c7 20be 095f 673d f486 cfbd 2dfd bfbc
000001f0: ea49 c2bd 2132 dc3d ac29 0cbd 5c46 fc3c
00000200: b3a4 8ebd 6a96 21bd 5b63 ffbd 8145 15be
00000210: 4d3e 41bd 6c9c 333e eb48 a1bd ce24 c03d
00000220: 9e70 223e 5f89 db3d f277 173e 0044 dabd
00000230: b680 383e 64ad 7b3d b161 e4bd 4ecb d53c
00000240: 480f 0cbe b560 abbd dd2f 19be 59f8 e1bc
00000250: e859 503c b377 283e e273 90bc 4d14 f3bb
00000260: 0eb4 35bc 99a1 3cbe 51cf d53d 1620 1cbe
00000270: 97ad 9c3d 653d 0abe 36a8 f13c b139 9ebd
00000280: 7d59 20be 5909 3fbe 7c83 1e3d d37d 3fbc
00000290: 7c2b a9bd cdfd ccbd 1c08 c1bd c3d1 d4bd
000002a0: 8832 133d a130 873d d718 a73d fc5c 55bd
000002b0: 8b10 003e cbd2 1e3e 2819 f8bd bdc7 3ebe
000002c0: 4e0c 963d 2998 1a3e 8bbc 123e 2b10 7fbc
000002d0: 7377 0dbd f805 bdbc abc6 ccbc 1261 d8bd
000002e0: 4b5d 2a3e 5e65 debd 934d f7bd b0a6 fdbd
000002f0: d88c f2bd d753 a5bc 91e9 223e b860 27be
00000300: 36b9 b8bd 5bb4 13be ebf7 333e f15f fd3d
00000310: c1a9 013e 8728 033e 7622 233e 6e9e 0e3e
00000320: 2d7b 263d a3e9 f5bd 863f 883d 1837 1ebe
00000330: 2fc7 053e 8a3c 99bd 9d79 093d 4f69 3a3e
00000340: d241 aa3d 6c4e 0b3e 2d5d 1a3e ed5c 78bd
00000350: 4953 0abe 61f7 163e 7f3c 853d 14b4 23bd
00000360: 25eb fcbd 5c38 adbd cbea 133e 066e f83d
00000370: fc3d 18be 0c08 433d 7441 84bd ba0b 56bd
00000380: 870f 54bd da91 afbd 33e9 163e 5543 153e
00000390: 5da9 d33d 4096 ad3d 3e68 9c3c 9b16 c8bd
000003a0: 9e4d a03d 7abb 023e 25ed 443d 3c2a 2dbd
000003b0: 3556 1f3e 06f8 1cbe 366b fabd 735d f8bd
000003c0: 15ca 2fbe ea84 ffbd a937 3f3e f3df 143e
000003d0: 35d1 94bc 6b54 3f3e d76a e03d 294b b23d
000003e0: 8f75 f2bd 9cca 2fbe 5b8d d63c 08df 1d3e
000003f0: 4ee9 9b3d 4ec1 0f3e 843a 6ebd 9b08 f13d

sequential/dense_2/MatMul f4 [10, 64]
-0.30133656 0.21966779 -0.102068916 -0.2217033 0.2506974 0.23168239 0.044002593 -0.08813023
0.2529301 -0.25844985 0.12942939 0.2620115 0.21908553 -0.18494785 0.13775916 0.2251604
-0.13684992 -0.041699465 0.20992792 -0.14844477 -0.02823808 0.21957062 -0.3123043 -0.15718192
0.21904956 -0.14213333 0.16235729 -0.074039795 0.28799766 0.23414147 0.009417406 -0.22242919
-0.2950772 0.09106353 0.074493475 -0.048776343 0.2543253 0.039666686 -0.19309148 0.14280353
-0.14044806 0.20437205 -0.31631374 -0.2942895 0.26523247 0.20269497 -0.19417237 0.10028371
-0.40141454 0.08404822 0.23981655 -0.16140506 -0.15795834 -0.24940184 -0.123040594 0.17185089
-0.20542009 -0.28390622 -0.16843094 -0.29050794 0.14824134 -0.30987224 -0.17517029 0.14139666
-0.3484734 -0.021764817 -0.041855693 0.009322314 0.027942736 -0.09539726 -0.10214142 0.02383557
-0.21776585 -0.30059054 -0.3514891 0.091099896 -0.015221361 -0.092369854 0.072530985 -0.32409555
-0.28709778 -0.14728412 0.20909442 0.1505912 0.22354744 0.16160779 -0.0607766 0.0449775
-0.17652127 0.09001422 -0.32199183 0.26330766 0.12322064 -0.036253475 0.04738159 -0.32298195
0.19295447 -0.09228059 0.064614505 0.07653328 0.23257959 -0.030442338 -0.005676132 0.026067818
-0.110156424 0.026857963 -0.28554645 -0.25728694 -0.19797127 -0.15554518 0.005899964 0.16712745
-0.03875455 0.182044 -0.051224653 0.28844804 0.03860418 -0.21642432 0.297144 0.10945598
-0.22915508 0.12926914 -0.21686809 0.2630534 0.18793087 0.041306783 -0.3060334 -0.081884325
0.007827549 -0.22687306 -0.22311565 0.014911897 -0.27257973 0.0611015 -0.12097341 -0.17128347
-0.1466506 -0.18859453 -0.15449622 0.058259066 -0.21692246 0.22828212 0.29162323 0.14300634
-0.23506118 -0.22716594 0.12560572 -0.2970796 0.055120796 0.1726535 -0.23594943 -0.30988425
0.110344954 -0.004943005 0.23714939 -0.31062567 -0.2210448 -0.26345482 -0.28538817 0.051814694
0.0026177214 0.062074363 -0.2128329 0.116207965 -0.22618248 -0.279207 0.028866401 -0.24331746
0.061208002 -0.25840613 -0.24789733 0.07244058 -0.061835013 -0.1776185 -0.082374044 0.20066442
0.216226 -0.18183324 0.28346378 0.27584025 -0.27443063 0.27552068 -0.0015169855 -0.2542069
-0.1787434 -0.09441361 -0.1820334 -0.07414934 0.13904846 0.21192303 -0.08809512 -0.070795126
-0.12034407 -0.18909368 -0.20723833 0.25282866 -0.0039024015 -0.15183583 -0.1301656 -0.12316339
0.21147904 0.2419247 0.21041968 0.26006857 0.16522433 -0.030270694 -0.024717735 -0.09498268
-0.13788505 -0.2126255 -0.21889816 0.19635247 -0.16286425 -0.16891898 0.1164657 0.07338301
0.25772792 -0.13500197 0.20373765 -0.21218348 0.011984205 -0.09456086 -0.13445058 -0.02913551
0.08971697 -0.22162499 -0.027211748 0.069269955 0.21189813 -0.14365809 0.14224553 -0.3362086
-0.26098117 0.20834294 -0.15916763 -0.21341237 0.009604795 0.13694614 -0.1349325 0.3095826
-0.14060844 0.25552288 0.004697606 -0.15621783 -0.19825527 -0.12727273 -0.017355002 -0.21288536
-0.07046575 0.12518416 -0.07774094 0.18155433 0.27732667 0.24779673 -0.11522183 0.18274665
00000000: c948 9abe 98f0 603e 8209 d1bd 3106 63be
00000010: 695b 803e 263e 6d3e 103c 343d 9f7d b4bd
00000020: 0e80 813e 8a53 84be 2389 043e 5f26 863e
00000030: f557 603e f862 3dbe bd10 0d3e 7390 663e
00000040: 6322 0cbe 0fcd 2abd 58f7 563e e801 18be
00000050: 8c53 e7bc 1fd7 603e 59e6 9fbe 4cf4 20be
00000060: 874e 603e 668b 11be fd40 263e 2da2 97bd
00000070: 6e74 933e c8c2 6f3e 774b 1a3c 7ac4 63be
00000080: 5c14 97be 847f ba3d 0990 983d b4c9 47bd
00000090: ed36 823e 8979 223d c6b9 45be 173b 123e
000000a0: 9ed1 0fbe e846 513e e0f3 a1be 1dad 96be
000000b0: 8dcc 873e 458f 4f3e 1fd5 46be 8c61 cd3d
000000c0: 3586 cdbe 7921 ac3d 7892 753e 5e47 25be
000000d0: d5bf 21be 3263 7fbe b5fc fbbd aef9 2f3e
000000e0: a559 52be 285c 91be 2979 2cbe 75bd 94be
000000f0: 94cc 173e 93a7 9ebe d75f 33be 49ca 103e
00000100: 1b6b b2be 214c b2bc e070 2bbd 9ebc 183c
00000110: 2ae8 e43c a35f c3bd 852f d1bd d042 c33c
00000120: 03fe 5ebe 01e7 99be 61f6 b3be 9592 ba3d
00000130: 0463 79bc 682c bdbd 208b 943d daef a5be
00000140: 7bfe 92be a6d1 16be d91c 563e 9434 1a3e
00000150: 9fe9 643e 837c 253e e2f0 78bd 543a 383d
00000160: fec1 34be 6059 b83d 1ddc a4be 43d0 863e
00000170: 1a5b fc3d 867e 14bd 3313 423d e45d a5be
00000180: db95 453e 9bfd bcbd 9c54 843d 7bbd 9c3d
00000190: 5829 6e3e 3662 f9bc d9fe b9bb 2d8c d53c
000001a0: b199 e1bd 3b05 dc3c 2533 92be 1dbb 83be
000001b0: fbb8 4abe 3c47 1fbe 7c54 c13b 7523 2b3e
000001c0: 17bd 1ebd be69 3a3e f1d0 51bd 76af 933e
000001d0: 6b1f 1e3d 569e 5dbe 4223 983e 752a e03d
000001e0: a1a7 6abe 215f 043e ab12 5ebe efae 863e
000001f0: f370 403e 4d31 293d 69b0 9cbe f8b2 a7bd
00000200: 1f3f 003c 6951 68be 6e78 64be 0751 743c
00000210: 928f 8bbe 9145 7a3d e8c0 f7bd ef64 2fbe
00000220: 932b 16be ed1e 41be 4234 1ebe 0fa1 6e3d
00000230: ec20 5ebe cac2 693e a44f 953e 4170 123e
00000240: e1b3 70be 309e 68be c99e 003e d11a 98be
00000250: 58c6 613d 14cc 303e ba9c 71be 26a9 9ebe
00000260: 89fc e13d eef8 a1bb 4ad7 723e 540a 9fbe
00000270: 9159 62be 8de3 86be 661e 92be a53b 543d
00000280: 148e 2b3b b041 7e3d def0 59be 71fe ed3d
00000290: 619c 67be 38f4 8ebe 3b79 ec3c 3628 79be
000002a0: 3eb5 7a3d cf4d 84be ccd8 7dbe ba5b 943d
000002b0: b646 7dbd a0e1 35be b9b3 a8bd f97a 4d3e
000002c0: 596a 5d3e 7e32 3abe 2a22 913e ef3a 8d3e
000002d0: 2c82 8cbe 0c11 8d3e 96d5 c6ba 6827 82be
000002e0: 8308 37be ec5b c1bd f766 3abe 9cdb 97bd
000002f0: b862 0e3e 5a02 593e 376b b4bd 09fd 90bd
00000300: f476 f6bd c6a1 41be 4936 54be c272 813e
00000310: 6fbf 7fbb da7a 1bbe 224a 05be 163d fcbd
00000320: f68d 583e 1cbb 773e 4278 573e b527 853e
00000330: 9130 293e 3ffa f7bc d97c cabc 4886 c2bd
00000340: bd31 0dbe 80ba 59be d726 60be 9f10 493e
00000350: e3c5 26be 19f9 2cbe 9285 ee3d d549 963d
00000360: eaf4 833e f53d 0abe 9aa0 503e a046 59be
00000370: 6659 443c 20a9 c1bd 6aad 09be 98ad eebc
00000380: 88bd b73d a9f1 62be 2ceb debc 68dd 8d3d
00000390: d3fb 583e 1b1b 13be d0a8 113e 8923 acbe
000003a0: 539f 85be da57 553e d7fc 22be c688 5abe
000003b0: 6e5d 1d3c 9c3b 0c3e bf2b 0abe 9c81 9e3e
000003c0: a9fb 0fbe e5d3 823e 60ee 993b 91f7 1fbe
000003d0: 6e03 4bbe c853 02be 142c 8ebc 9ffe 59be
000003e0: 5950 90bd 4730 003e a436 9fbd 61e9 393e
000003f0: c3fd 8d3e 6dbe 7d3e 6cf9 ebbd f021 3b3e
