projet/cpp/model/NeuralNetwork.tflite (tflite, 579840 bytes, 8 tensors)

sequential/dense_1/BiasAdd/ReadVariableOp f4 [64]
0	0xbbc7d46b	-0.0060983202
1	0xbc7dad7b	-0.0154832555
2	0xbc079d00	-0.008277178
3	0xbc72b1df	-0.014812916
4	0xbce9f6c8	-0.028560057
5	0x3b856ce9	0.004071821
6	0xbd01a8cc	-0.031655118
7	0xba4cb8cc	-0.00078095193
8	0x3af6d0e2	0.0018830562
9	0xbc361543	-0.011113468
10	0xbcd58055	-0.02606217
11	0x3c06a2fe	0.008217571
12	0xbca0c002	-0.019622806
13	0x3b57f012	0.003294949
14	0xba9847f7	-0.0011618127
15	0x3b97ecb5	0.004636372
16	0x3c348458	0.011017881
17	0xbafbf8cd	-0.0019223929
18	0xb949bacc	-0.00019238441
19	0xbc7906c1	-0.015199364
20	0x3936d262	0.00017435246
21	0xbc054975	-0.008135189
22	0x3d0158d8	0.03157887
23	0xbba9757f	-0.0051714773
24	0xbbad88d5	-0.0052958527
25	0x3ba7fcaf	0.005126558
26	0x3d0add73	0.033902597
27	0x3cf29106	0.029610168
28	0x3b9810f7	0.0046406942
29	0x3cb56427	0.022142483
30	0x3ad83fc8	0.00164985
31	0xbc2b0b09	-0.010439643
32	0xbc213488	-0.009839185
33	0x3cb7adc1	0.02242172
34	0xbc7de12b	-0.015495579
35	0xbcb18271	-0.021668645
36	0x3c4ce62c	0.012506049
37	0x3c7764ea	0.015099743
38	0xbca83469	-0.020532804
39	0xbcb0c470	-0.021578044
40	0xbca1b70f	-0.01974061
41	0xbc246e0d	-0.010036004
42	0x3cf02925	0.029316494
43	0x3c5c7c0d	0.01345731
44	0x3cd56b00	0.026051998
45	0x3cc35605	0.023844728
46	0x3b099754	0.002099474
47	0x3b7d2595	0.0038627137
48	0xbc2d7fc8	-0.010589547
49	0x3b2758ad	0.0025535033
50	0xba6e35da	-0.0009087004
51	0xbca3668f	-0.019946365
52	0xbd0dfe15	-0.03466614
53	0x3d36e9db	0.044656616
54	0xbbae52ac	-0.005319914
55	0x3ca22614	0.019793548
56	0x3ca3c61d	0.019991929
57	0xbca3cf86	-0.019996416
58	0x3c85753d	0.016291255
59	0xbcb963d9	-0.022630619
60	0x3c23c4f4	0.009995688
61	0x3ce76dbf	0.028250573
62	0x3d84fc0f	0.06493389
63	0xbbba1902	-0.0056792507

sequential/dense_2/BiasAdd/ReadVariableOp f4 [64]
0	0x3d1eb130	0.038743198
1	0x3a9e6dc7	0.001208716
2	0xbcd2e079	-0.025741803
3	0xbb1387ee	-0.002251144
4	0x3b01a911	0.001978461
5	0x3d03ff13	0.03222568
6	0xbd4a79f8	-0.049432725
7	0xbd57f62f	-0.052725013
8	0x3c8999a4	0.016796894
9	0xbbf7294d	-0.0075427652
10	0xbd272124	-0.04080309
11	0xbcbc8bf6	-0.023015957
12	0xbb9790e5	-0.004625427
13	0xbc6f7623	-0.014615568
14	0xbcf2f3aa	-0.029657204
15	0x3cb25fb6	0.021774154
16	0x3d52ef07	0.051497485
17	0x3d105b8a	0.03524355
18	0x3d09ecb0	0.03367299
19	0xbc654b9b	-0.0139950765
20	0xbc8989b4	-0.016789295
21	0x3d087606	0.03331568
22	0xbcd07a56	-0.02544896
23	0xbc86ec64	-0.016470142
24	0x3b07c113	0.0020714446
25	0x3c884312	0.016633544
26	0x3cf5856b	0.029970845
27	0xbcdb0c59	-0.026739286
28	0xbc8af2cf	-0.016961483
29	0x3d20ee97	0.039290037
30	0xbc880744	-0.016605027
31	0x3ac9e8c7	0.0015404456
32	0x3c2cba2f	0.0105424365
33	0x3b404827	0.002933988
34	0x3c7eb4d0	0.015546039
35	0x3ca4607e	0.020065542
36	0xbb83a58c	-0.0040175375
37	0xbb4f4df8	-0.0031632166
38	0x3c8ea2db	0.01741164
39	0x3cab9808	0.020946518
40	0xbcb3485e	-0.021885093
41	0xba29a001	-0.0006470681
42	0x3c6eec59	0.014582717
43	0x3ce481ed	0.027893985
44	0x3cbdf0a2	0.023186032
45	0x3ba0f84b	0.0049124113
46	0x3c311243	0.010807577
47	0x3d2981b3	0.041383456
48	0x3d01140e	0.031513266
49	0x3bcf3296	0.006323169
50	0x3b35a9c6	0.00277196
51	0xbb1dde96	-0.002408897
52	0x3b18944a	0.0023281747
53	0xbc8d4e3d	-0.017249221
54	0xbce560b1	-0.028000208
55	0xbd30d30a	-0.043170013
56	0x3ce4d8d6	0.027935427
57	0xbd3b1960	-0.045678496
58	0x3d49dddf	0.04928386
59	0x3c6bc0b9	0.01438921
60	0xbcf6768a	-0.03008582
61	0xbd30db67	-0.04317799
62	0xbc84c63d	-0.016207809
63	0x3ca92b9a	0.020650674

sequential/dense_3/BiasAdd/ReadVariableOp f4 [10]
0	0xbd579850	-0.05263549
1	0xbdab243f	-0.08356523
2	0x3d7ae189	0.061250243
3	0x3b121e0e	0.0022295746
4	0x3d16f715	0.03685673
5	0xbcbb2194	-0.02284316
6	0xbc936b4c	-0.0179955
7	0x3c6e9110	0.014560953
8	0x3d95409d	0.07287715
9	0xbcc632f2	-0.024194214

sequential/dense/BiasAdd/ReadVariableOp f4 [128]
0	0x3cc1d9ea	0.02366348
1	0x3ce673bd	0.02813136
2	0x3c53103b	0.012882288
3	0x3c28afdd	0.010295835
4	0xbc9b32fb	-0.018945208
5	0x3c898bb9	0.016790258
6	0xbb880c8f	-0.0041518877
7	0xbc0ec93e	-0.008714972
8	0x3d1e5fd9	0.038665626
9	0x3c7e7c13	0.015532511
10	0x3c94ccde	0.018164095
11	0x3c7cc8d0	0.015428737
12	0x3cbb9ddc	0.022902422
13	0xbce70e9c	-0.028205208
14	0xbcb01d98	-0.021498486
15	0xb957a982	-0.00020567144
16	0x3c1f1b05	0.009711032
17	0xbb8366ef	-0.0040100734
18	0x3ce809b8	0.028324947
19	0xbb98376f	-0.00464528
20	0xbc4e70f2	-0.01260017
21	0xbc9ed2b3	-0.019387579
22	0x3c31ef20	0.0108602345
23	0xbcaa429e	-0.020783719
24	0xbb61d702	-0.003446043
25	0x3abb6ec0	0.0014299974
26	0x3d0fdaca	0.035120763
27	0x3caa0609	0.02075483
28	0xbd330b21	-0.043711785
29	0x3b9ea2eb	0.0048411987
30	0x3cb1aa68	0.021687701
31	0xbc692470	-0.014229879
32	0xbcfcb917	-0.030849976
33	0x3c016f55	0.007900079
34	0xbd664b8e	-0.0562244
35	0x3c8c1b39	0.017102825
36	0xbca0fa9b	-0.019650748
37	0x3d21129c	0.039324388
38	0xbd02877a	-0.03186748
39	0x3910c186	0.00013805003
40	0xbd0cee80	-0.03440714
41	0xbd069675	-0.03285833
42	0xbd08a391	-0.033359114
43	0xbc6ddf22	-0.014518531
44	0x3cfddcc4	0.030989058
45	0x3c6419d5	0.013922174
46	0x3c5b4f5f	0.013385623
47	0x3cf8c7ba	0.030368675
48	0x3c13effd	0.009029386
49	0x3d002147	0.031281736
50	0xbc9080f7	-0.01763962
51	0xbd0880f9	-0.033326123
52	0x3d050217	0.032472696
53	0x3c831508	0.01600124
54	0xbb82584e	-0.003977812
55	0x3bbd3a8e	0.0057748025
56	0x3c8435d1	0.016138943
57	0xbc31d194	-0.01085319
58	0xbd2c8692	-0.042120524
59	0x3ce4e98e	0.027943399
60	0xbc643dc4	-0.013930742
61	0x3cfcd002	0.030860905
62	0x3b9b4765	0.0047387355
63	0xbc4c88a0	-0.012483746
64	0xbbb88fe7	-0.005632389
65	0x3c1676c7	0.009183592
66	0xbba2793e	-0.004958301
67	0x3c895bbe	0.016767379
68	0x3be8ab35	0.0071004876
69	0xbc6b8771	-0.0143755535
70	0x3d06f906	0.03295233
71	0x3c8e437e	0.017366167
72	0xbc81c362	-0.015840236
73	0xbc5ea033	-0.013587999
74	0x3c0a2f2e	0.0084341
75	0x3b2ea3fd	0.0026648038
76	0xbc0a581b	-0.008443858
77	0xbc98209a	-0.018570233
78	0x3b19369b	0.0023378495
79	0x3c1c3efa	0.009536499
80	0xbcf2af9a	-0.029624749
81	0xba8771a8	-0.0010333555
82	0x3d1b4c7a	0.03791473
83	0xbd06d928	-0.03292194
84	0x3bfa8d10	0.0076462105
85	0x3c171414	0.009221096
86	0x3bc01563	0.0058619245
87	0xbb377fcd	-0.002799976
88	0x3bb2b988	0.005454246
89	0xbc88c94f	-0.016697554
90	0x3d35b9d9	0.04436669
91	0x3cceaeba	0.0252298
92	0xbd1cc3dc	-0.038272724
93	0xbb239657	-0.0024961436
94	0x3bd538ee	0.0065070307
95	0xbac7cfb8	-0.00152444
96	0x3bde6596	0.0067870123
97	0x3cd2824b	0.025696894
98	0xbc4b0cdf	-0.012393205
99	0xbd3a1917	-0.045434084
100	0xbb333746	-0.0027346178
101	0xbcca5551	-0.024698885
102	0x3c5cfe0b	0.013488303
103	0x3c46a5ff	0.0121245375
104	0xbae7a8c7	-0.0017674201
105	0xbc30e995	-0.010797878
106	0x3c4f7e0f	0.012664332
107	0x3d093e8d	0.03350692
108	0x3ad2a4e6	0.0016070872
109	0x3cd8fa50	0.026486546
110	0xbc1bf25c	-0.009518232
111	0x398cc000	0.00026845932
112	0x3d301ccb	0.04299621
113	0xbbb8b1c9	-0.005636428
114	0xbc14208d	-0.009040964
115	0x3c847c5e	0.016172584
116	0x3bdbb326	0.006704706
117	0x3d05f003	0.032699596
118	0x3d0e1d49	0.034695897
119	0x3cd7b689	0.026332157
120	0x3c1d5eec	0.009605151
121	0x3b60a6c6	0.0034279092
122	0xbc90b90e	-0.017666366
123	0xbbbd7bb4	-0.005782569
124	0xbc87bc7b	-0.016569367
125	0x3baf2775	0.00534528
126	0x3c8d20ab	0.017227491
127	0xbcde17a6	-0.027110886

sequential/dense/MatMul f4 [128, 1024]
0	0x3d9ca775	0.076491274
1	0x3d2205e6	0.039556406
2	0xbab61651	-0.0013892149
3	0x3ce53cb5	0.027983049
4	0x3dbf628a	0.09344967
5	0x3cf83769	0.03029986
6	0x3cea64dd	0.028612548
7	0xbb8513b1	-0.0040611853
8	0x3c19f4e5	0.009396766
9	0xbd0a7311	-0.033801142
10	0x3c7f2307	0.015572316
11	0xbd8a2f58	-0.06747311
12	0xbcc6be19	-0.024260568
13	0x3d3b014b	0.04565553
14	0xbda526fc	-0.08064076
15	0x3cd48fb1	0.025947424
16	0xbcd89aa5	-0.026440928
17	0x3d2e4d96	0.04255446
18	0xbd893864	-0.06700209
19	0x3d8195f1	0.06327427
20	0x3d5a24ce	0.053257756
21	0xbd8b1d59	-0.06792707
22	0xbcbd50af	-0.023109762
23	0x3d43924b	0.047746938
24	0xbd5927ec	-0.053016588
25	0xbced8e61	-0.028998556
26	0xbd4bc5bb	-0.049749117
27	0x3c9b1056	0.018928688
28	0xbdaad85f	-0.08342051
29	0x3b2527aa	0.0025200644
30	0xbd7f6dce	-0.062360577
31	0x3c91b814	0.01778797
32	0x3d83d295	0.0643665
33	0x3d080890	0.03321129
34	0x3bf20634	0.0073859934
35	0xbd7b39a1	-0.061334256
36	0x3b803cad	0.003913483
37	0x3d60003c	0.054687724
38	0x3b5bbfa4	0.0033530975
39	0x3d1abfa3	0.037780415
40	0x3c801dfc	0.015639298
41	0xbd3d7e48	-0.04626301
42	0x3bacdbcc	0.0052752253
43	0xbd5ed734	-0.054404452
44	0x3cd723fb	0.026262274
45	0xbcecf3d9	-0.02892487
46	0xbd89540b	-0.06705483
47	0x3d607681	0.054800514
48	0xbc620c60	-0.013796896
49	0x3d85e943	0.06538632
50	0xbc7e2e0e	-0.01551391
51	0xbd47c73f	-0.048774
52	0x3d438842	0.047737367
53	0xbb3987f4	-0.0028309794
54	0x3d845354	0.06461206
55	0xbbd4eff2	-0.0064983303
56	0x3d9c65a0	0.07636571
57	0xbc98f6e7	-0.01867242
58	0xbd241227	-0.040056374
59	0x3d0fab3a	0.035075404
60	0xbba719a0	-0.0050994903
61	0xbcd92911	-0.02650884
62	0x3c01d72e	0.007924838
63	0xbc8ef724	-0.01745183
64	0x3d0a8689	0.03381971
65	0x3d335b7c	0.04378842
66	0xbd3801d9	-0.044923637
67	0x3ccd2790	0.025043279
68	0x3d570280	0.05249262
69	0x3cb91b65	0.02259607
70	0x3cc29d70	0.023756713
71	0x3dacbd1c	0.08434507
72	0xbd4d31f3	-0.050096463
73	0x3dd2e968	0.10298425
74	0xbc3c2b12	-0.011484878
75	0x3da94bef	0.08266436
76	0x3d48e7a5	0.04904904
77	0x3da588bf	0.08082723
78	0xba81c3e2	-0.0009900297
79	0x3c986892	0.01860455
80	0x3b82e739	0.003994849
81	0x3d8e589e	0.06950496
82	0x3cf48928	0.029850557
83	0x3cd0ac57	0.025472803
84	0xbd856e22	-0.06515147
85	0x3d7dca57	0.061960544
86	0x3c673add	0.014113155
87	0x3cfc541e	0.030801829
88	0x3d9fea5d	0.07808373
89	0xbc37a517	-0.011208794
90	0xbd327c15	-0.043575365
91	0x3bedf315	0.0072616437
92	0x3d97ac5f	0.07405924
93	0x3cf5ee68	0.030020908
94	0x3d369ae6	0.044581316
95	0x3d7a6596	0.061132036
96	0xbd377f8a	-0.044799365
97	0x3dae02b3	0.084966086
98	0x3cd46b31	0.02593002
99	0x3d0e6a58	0.034769386
100	0x3b4bee5a	0.003111741
101	0x3ce1acbe	0.02754819
102	0x3cc1521a	0.02359872
103	0x3d1d64e3	0.03842629
104	0xbd297e6a	-0.041380323
105	0x3db94e19	0.09048099
106	0x3d4f0f28	0.050551564
107	0xbbd5f499	-0.0065294025
108	0x3d25fc77	0.040523972
109	0x3d4895dc	0.048971042
110	0xbd469eb2	-0.048491187
111	0x3d29d9f8	0.041467637
112	0xbcaea57a	-0.02131914
113	0x3b988356	0.0046543283
114	0x3afb0cce	0.0019153596
115	0x3cff2187	0.031143917
116	0x3d5d2c40	0.05399728
117	0xbcc75265	-0.024331281
118	0xbc4009f0	-0.011721119
119	0xbcd328a8	-0.025776222
120	0xbd58ccbe	-0.052929632
121	0x3b3f4421	0.0029184895
122	0x3d9badf3	0.076015376
123	0xbd149e58	-0.03628382
124	0x3d35bc72	0.04436917
125	0xbd74c05e	-0.05975377
126	0xbd05f284	-0.032701984
127	0xbbc58ebc	-0.006028978
128	0x3ca3f991	0.020016463
129	0x3cb65d4d	0.022261286
130	0xbba04cde	-0.004891976
131	0x3d99e97c	0.07515237
132	0x3ca10c7a	0.01965927
133	0xbd7d90db	-0.061905723
134	0xbd467df5	-0.048459966
135	0x3cd8b97a	0.02645563
136	0x3c0108c1	0.007875622
137	0xbd15c765	-0.03656711
138	0x3cba13a0	0.022714436
139	0xbbcacbbc	-0.006188838
140	0xbd074919	-0.033028696
141	0xbd075825	-0.033043046
142	0xbc10e123	-0.008842739
143	0xbd7cadbf	-0.061689135
144	0x3d0042a4	0.031313553
145	0x3d635489	0.05550054
146	0xbd4e82db	-0.050417762
147	0xbd0cab1b	-0.034342866
148	0xbcd0378e	-0.025417116
149	0x3d899acb	0.067189775
150	0xbd5bf56b	-0.053700846
151	0x3c20ef80	0.009822726
152	0xbbd09654	-0.0063655768
153	0xbc8e2d47	-0.017355574
154	0xbcfe1347	-0.031015052
155	0x3c2d4001	0.010574342
156	0xbc92cd7b	-0.017920246
157	0xbd13bdb6	-0.036069594
158	0x3cf7b470	0.030237406
159	0x3d26cd0f	0.040722903
160	0x3cea9a23	0.028637951
161	0xbd69f26a	-0.05711595
162	0xbcaef28f	-0.021355895
163	0xbd082636	-0.033239566
164	0x3d3cbefe	0.04608058
165	0x3c613599	0.013745689
166	0xbd82d6b1	-0.063886054
167	0xbcd4f47b	-0.025995484
168	0xbd39a321	-0.045321587
169	0x3d22d777	0.039756265
170	0xbd2350c7	-0.039871957
171	0x3d593e7c	0.053038105
172	0x3c90d164	0.01767797
173	0x3d619c21	0.055080537
174	0xbd6c4ec1	-0.057692293
175	0xbd90fb6d	-0.07079206
176	0xbc819043	-0.01581586
177	0xbd76d565	-0.060262103
178	0x3d853da3	0.06505897
179	0xbca8bce4	-0.020597883
180	0xbd71693e	-0.058938257
181	0xbd893a6b	-0.067005955
182	0xbb45a25f	-0.0030156595
183	0xbd2f330d	-0.042773295
184	0x3a08c150	0.0005216794
185	0x3c8df5dc	0.017329149
186	0x3c75c444	0.015000407
187	0x3c809f07	0.01570083
188	0xbd2cc7a6	-0.042182587
189	0xbd97ee68	-0.07418519
190	0xbd4b4d47	-0.049634244
191	0x3caea833	0.021320438
192	0x3d4a0dde	0.04932963
193	0xbd416163	-0.047212016
194	0x3cccf0b7	0.025017126
195	0x3cfb93ec	0.030710183
196	0x3c39911a	0.011326099
197	0x3b923487	0.004461828
198	0xbc716082	-0.014732482
199	0xbd41b8eb	-0.047295492
200	0x3d170314	0.03686817
201	0x3d42d6e6	0.047568224
202	0xbd244772	-0.040107198
203	0xbd64cf55	-0.05586179
204	0xbac1a21b	-0.0014773043
205	0xbda99fd5	-0.08282439
206	0xbb2e7f2a	-0.0026626089
207	0x3cf8aff9	0.030357348
208	0xbd8ec00d	-0.069702245
209	0xbd5784bb	-0.052616816
210	0xbce9b39b	-0.028528025
211	0xbd37af65	-0.044845004
212	0x3d52cffc	0.05146788
213	0x3c0dfde6	0.008666491
214	0xbbafa595	-0.005360315
215	0xbcf0d5f4	-0.029398896
216	0xbd78cc8c	-0.060741946
217	0xbd8f9adc	-0.07011959
218	0x3d5a7b96	0.053340517
219	0x3d361171	0.044450227
220	0xbc8c3a47	-0.017117633
221	0xbbf50ff6	-0.0074787093
222	0xbcb2084f	-0.021732477
223	0xbc2650f5	-0.010151138
224	0xbd2b2f95	-0.041793425
225	0x3cb5b3c8	0.022180453
226	0xbd9c03fa	-0.07617946
227	0x3d29a2ae	0.04141491
228	0x3d3c6efe	0.046004288
229	0x3d707014	0.058700636
230	0xbcc4d5a2	-0.02402765
231	0xbd8ccff4	-0.068756014
232	0xbd81a8ff	-0.063310616
233	0xbda4fd5c	-0.08056137
234	0xbd69f51c	-0.05711852
235	0xbc3a4656	-0.011369308
236	0xbd895812	-0.06706251
237	0xbc8d69e0	-0.0172624
238	0xbd16a59f	-0.036779042
239	0x3c93e4af	0.01805338
240	0x3d284edf	0.041090842
241	0x3c339082	0.010959746
242	0xbd92b47b	-0.0716333
243	0xbd30fa9b	-0.043207746
244	0xbc497797	-0.012296579
245	0xbda2327f	-0.079197876
246	0x3b7fd4ef	0.003903683
247	0xbd8464aa	-0.06464513
248	0x3c6391fc	0.013889786
249	0x3aa2b27a	0.0012412809
250	0xbd86b26a	-0.065769985
251	0x3cbbbe5f	0.022917924
252	0x3d4bf5ac	0.049794838
253	0xbc422238	-0.011848979
254	0xbd80d01d	-0.062896945
255	0xbd5813ab	-0.05275313

sequential/dense_1/MatMul f4 [64, 128]
0	0xbe0e2bdc	-0.13883919
1	0xbdbceed0	-0.09225237
2	0xbd5ded44	-0.054181352
3	0x3dda00c2	0.10644676
4	0x3d87ac4e	0.066246614
5	0xbcb5c55d	-0.022188837
6	0xbe25885b	-0.16165297
7	0xbda480bf	-0.08032369
8	0xbd3ac065	-0.045593638
9	0xbe361207	-0.17780314
10	0xbe417707	-0.18893062
11	0xbe031c79	-0.1280383
12	0xbd52620b	-0.051363032
13	0x3dbaa962	0.091143385
14	0x3c922113	0.017838037
15	0xbe1e8520	-0.1548047
16	0x3e2df639	0.16988458
17	0xbd29bafc	-0.041438088
18	0x3e21af97	0.15789638
19	0xbdd2ebc2	-0.102988735
20	0x3d3cf4e8	0.046132
21	0x3dc2f832	0.09519996
22	0x3e191fb1	0.14953496
23	0xbd757ada	-0.059931614
24	0x3c8a58ea	0.0168881
25	0xbddeef34	-0.10885468
26	0xbd0bf873	-0.034172487
27	0x3e194aba	0.14969912
28	0x3def87ef	0.11695849
29	0xbd845735	-0.06461946
30	0x3d6a6311	0.057223383
31	0xbd9afa26	-0.07567243
32	0x3cbc1ec6	0.022963893
33	0xbd7889ab	-0.060678165
34	0x3dab21f4	0.083560854
35	0x3d2ff470	0.042957723
36	0x3df44531	0.1192726
37	0xbd36226d	-0.044466425
38	0x3d13adaa	0.03605429
39	0xbb9e0bfc	-0.004823206
40	0xbd3ea29e	-0.046541803
41	0xbd0bb7a2	-0.034110673
42	0xbde2ffac	-0.11083922
43	0xbe281a02	-0.16416171
44	0xbe205cad	-0.15660353
45	0x3e2d7c1c	0.16941875
46	0x3dd0cf27	0.10195761
47	0xbdb736a8	-0.08945972
48	0x3caf2376	0.021379214
49	0xbe2a1119	-0.16608085
50	0x3df7e5aa	0.12104352
51	0xbd96cebf	-0.073636524
52	0xbd932e38	-0.0718655
53	0xbc058771	-0.0081499675
54	0xbe1b5661	-0.1516967
55	0xbd0e77d3	-0.034782242
56	0xbe18ca2c	-0.14920872
57	0xbd434a5a	-0.04767833
58	0x3c1953fd	0.009358403
59	0xbdee5424	-0.11637142
60	0x3df5e636	0.120068
61	0x3dd9ec9a	0.10640831
62	0xbdc710a5	-0.097199716
63	0x3e0c117e	0.13678548
64	0xbe0d5353	-0.13801317
65	0x3c17907d	0.009250757
66	0x3df7c4cc	0.12098083
67	0x3cb24e8e	0.021765973
68	0x3e07f604	0.13277441
69	0x3d15eb50	0.036601365
70	0x3d3ac4b3	0.045597743
71	0xbc81c591	-0.015841277
72	0x3dd8c235	0.10583917
73	0xbb6d5d3c	-0.0036218902
74	0x3dc9eda3	0.09859779
75	0x3d5c1c16	0.053737722
76	0x3cdafc20	0.02673155
77	0xbd02fbc5	-0.031978387
78	0x3d138bd5	0.036022026
79	0x3d01deb2	0.03170652
80	0xbe0a5b19	-0.13511313
81	0x3d31f79c	0.04344903
82	0xbe1e01d2	-0.15430382
83	0xbdcfe733	-0.101515196
84	0xbdcde635	-0.10053674
85	0x3d995207	0.074863486
86	0xbe181a9d	-0.14853902
87	0xbd205404	-0.039142624
88	0x3d475907	0.048668887
89	0xbc3dd845	-0.011587207
90	0xbd842ff3	-0.06454458
91	0xbe0e24e9	-0.13881268
92	0x3e0481f6	0.12940201
93	0xbd4875d8	-0.04894051
94	0x3e08c421	0.13356067
95	0x3d1285f4	0.03577228
96	0xbdc6cafc	-0.09706685
97	0x3d492193	0.049104284
98	0x3c3d275a	0.011545027
99	0x3d3468b3	0.04404516
100	0xbe3358df	-0.1751437
101	0xbda849fa	-0.08217235
102	0x3d971c35	0.07378427
103	0x3b2e9d57	0.0026644075
104	0x3e285780	0.16439629
105	0xbd966924	-0.07344273
106	0xbe344c56	-0.17607245
107	0xbdc9df78	-0.098570764
108	0xbe070be5	-0.13188131
109	0xbdd66ee4	-0.104703695
110	0x3da25b04	0.07927516
111	0x3d33ac00	0.043865204
112	0xbddf9194	-0.10916439
113	0x3e181eed	0.14855547
114	0x3deeae5c	0.1165435
115	0x3cb31e99	0.021865176
116	0xbe1fa05d	-0.15588517
117	0xbda43fca	-0.08019979
118	0xbe113376	-0.14179787
119	0xbe2fff88	-0.17187321
120	0xbca0a1f4	-0.019608475
121	0x3dc6234f	0.09674703
122	0x3dd6c2d3	0.104863785
123	0x3da75989	0.08171374
124	0x3de5fd9a	0.11230011
125	0xbd263504	-0.040577903
126	0xbe06aa38	-0.13150871
127	0xbd286169	-0.041108523
128	0x3e148d55	0.14507039
129	0x3d0bc5b5	0.034124095
130	0xbdeea9ab	-0.11653455
131	0xbb861ebe	-0.00409302
132	0x3da4aff3	0.08041372
133	0xbe090def	-0.13384221
134	0x3e0abdb9	0.13548936
135	0xbcbf397a	-0.023342837
136	0x3d0b3400	0.033985138
137	0x3c3c8e55	0.011508544
138	0x3cdc82e4	0.026917882
139	0xbd897770	-0.06712234
140	0x3b8be652	0.0042693997
141	0xbdc491b8	-0.09598106
142	0xbceaad97	-0.028647227
143	0xbdd95e42	-0.106136814
144	0xbe288612	-0.16457394
145	0x3dd6ec65	0.104943074
146	0xbe3cceaf	-0.18438219
147	0x3d9f0dbe	0.07766293
148	0xbd02ffbe	-0.031982176
149	0x3da3ec4c	0.080040544
150	0x3de4d44e	0.111733064
151	0x3da0528f	0.07828247
152	0x3da9eb5d	0.08296845
153	0x3e33326b	0.17499702
154	0x3dbdbb58	0.092642486
155	0x3cb45883	0.022014862
156	0xbe20234b	-0.15638463
157	0xbcd95fcf	-0.026534943
158	0x3da9fe36	0.0830044
159	0xbe1b52d1	-0.1516831
160	0xbb130c45	-0.0022437733
161	0x3c4a6806	0.012353903
162	0xbe382359	-0.17982234
163	0xbe0137b0	-0.126189
164	0xbd69ff75	-0.05712839
165	0xbd216998	-0.039407343
166	0x3dd76837	0.10517924
167	0xbe2f5179	-0.17120923
168	0xbd522f34	-0.051314548
169	0xbd8815e2	-0.06644799
170	0x3ddb5cc1	0.10711051
171	0xbe190c7d	-0.1494617
172	0xbde89aa9	-0.11357624
173	0x3d829983	0.06376936
174	0xbd20e718	-0.03928289
175	0x3d75db10	0.060023367
176	0xbe21ce0d	-0.15801258
177	0xbd2a9d7f	-0.041654106
178	0x3c2e9936	0.0106566455
179	0xbdd5506e	-0.10415731
180	0xbdc87e02	-0.09789659
181	0x3da22e08	0.07918936
182	0xbe00ba90	-0.12571168
183	0xbdf2a4e0	-0.11847854
184	0x3dcc72c2	0.09982826
185	0x3e001a40	0.12510014
186	0x3c2de7a4	0.010614309
187	0xbdb2a2e4	-0.08722475
188	0x3e223223	0.15839438
189	0xbe2b214f	-0.16711925
190	0xbca8d073	-0.020607209
191	0xbc4d90c7	-0.012546725
192	0x3ca5798b	0.020199558
193	0x3cead0f4	0.02866409
194	0xbcf512b1	-0.02991614
195	0xbd6cef2a	-0.057845272
196	0x3ce71c3a	0.028211702
197	0xbdb7eadd	-0.089803435
198	0xbe1b0d1f	-0.15141724
199	0xbc95585b	-0.018230608
200	0xbc6bc3f4	-0.014389981
201	0x3e338a3a	0.17533198
202	0x3ddde5e2	0.10834862
203	0xbe0630cc	-0.13104552
204	0x3e0ca26b	0.13733833
205	0xbd016ab1	-0.03159589
206	0xbe2d6a9e	-0.16935202
207	0xbd6a1389	-0.057147536
208	0xbcfd9dd6	-0.030959051
209	0x3d07edb9	0.033185694
210	0x3e025b0d	0.12730046
211	0xbe379fd7	-0.17932068
212	0xbd66c8f8	-0.056344002
213	0xbcf7c54a	-0.030245442
214	0xbd1e5195	-0.03865202
215	0xbc94b092	-0.018150602
216	0x3dc74024	0.09729031
217	0xbc44c879	-0.012010687
218	0x3c88c0ec	0.016693555
219	0xbd848500	-0.0647068
220	0xbd63977d	-0.055564392
221	0x3de8ed2a	0.113733605
222	0xbda1c311	-0.07898534
223	0xbe07b6ee	-0.13253376
224	0xbde4f14c	-0.11178836
225	0xbe09fc17	-0.13475071
226	0xbe266678	-0.16250026
227	0xbd869f0a	-0.06573303
228	0xbdd04ec5	-0.10171274
229	0x3de82378	0.1133489
230	0x3cda2ad8	0.026631758
231	0xbde24ab3	-0.11049404
232	0xbdaf7937	-0.08568042
233	0xbdfe4d98	-0.124171436
234	0x3da1dbab	0.079032265
235	0xbe1a0852	-0.15042236
236	0x3dd5c758	0.104384124
237	0x3dd32a26	0.103107736
238	0xbcead039	-0.028663741
239	0xbdcda59c	-0.10041353
240	0xbdd4edb4	-0.10396901
241	0x3daf2878	0.08552641
242	0xbd30334f	-0.04301768
243	0x3d8e20df	0.069398634
244	0xbdd77058	-0.10519475
245	0x3ca66bb9	0.020315038
246	0xbdb661d0	-0.08905375
247	0x3d109956	0.035302483
248	0xbd91f76b	-0.07127269
249	0xbe2624a7	-0.1622492
250	0xbcdb6e19	-0.026785897
251	0x3c393aa8	0.011305489
252	0x3c8573a9	0.016290503
253	0x3dda448c	0.106576055
254	0xbe3d9884	-0.18515211
255	0xbb37e609	-0.0028060696

sequential/dense_2/MatMul f4 [64, 64]
0	0x3d9b9950	0.075976014
1	0xbc4f493e	-0.01265174
2	0xbc9915e5	-0.018687198
3	0x3b5a3825	0.0033297625
4	0xbe645ef6	-0.2230185
5	0xbe43161c	-0.19051403
6	0x3e3fe360	0.1873908
7	0x3b736efa	0.0037145005
8	0x3e10a36c	0.1412484
9	0xbe6c2bd0	-0.23063588
10	0x3e5491eb	0.20758788
11	0x3e4793c2	0.19489959
12	0x3da4ac67	0.08040696
13	0x3e0cee35	0.13762744
14	0x3e24b6af	0.16085313
15	0xbe3d55a3	-0.18489699
16	0x3e2b587c	0.16732973
17	0x3df50cdf	0.119653456
18	0xbd137c30	-0.036007106
19	0xba5ca77d	-0.00084172917
20	0xbe43e7f5	-0.19131453
21	0x3e2f2175	0.17102607
22	0x3e6958b4	0.22787744
23	0xbe55b703	-0.20870595
24	0xbd018823	-0.03162397
25	0xbdcc80a1	-0.099854715
26	0xbd35580f	-0.044273432
27	0x3d95fd09	0.07323653
28	0xbdb4c9a4	-0.088275224
29	0xbdcbf160	-0.09958148
30	0x3db76953	0.08955636
31	0x3cd8b527	0.026453568
32	0xbe2b61d4	-0.16736537
33	0x3e46fcb0	0.1943233
34	0x3db2247e	0.086983666
35	0xbe0dea96	-0.13859019
36	0xbd6d630b	-0.057955783
37	0xbdfae2dd	-0.12250302
38	0xbe46beea	-0.19408765
39	0xbddfc24c	-0.10925731
40	0x3e20d989	0.15707983
41	0x3e88fc3e	0.26754946
42	0xbd80b47a	-0.06284423
43	0x3d90fe9e	0.070798144
44	0xbd314f24	-0.043288365
45	0xbe10dba8	-0.14146292
46	0xbe0bd232	-0.13654402
47	0xbddd627d	-0.10809801
48	0xbdb0ffff	-0.086425774
49	0x3d9e3fdb	0.07727023
50	0xbe165c9a	-0.14683762
51	0x3e1829c9	0.1485969
52	0x3cabf9e5	0.020993182
53	0xbd4f3308	-0.050585777
54	0x3d8cfac7	0.068837695
55	0x3e498c25	0.19682367
56	0x3c2cbdea	0.010543326
57	0x3c087742	0.0083292145
58	0x3c0db921	0.008650095
59	0xbd5e582f	-0.054283317
60	0xbe31e58a	-0.17372718
61	0xbd002ed7	-0.03129467
62	0x3df49077	0.11941617
63	0x3d984f81	0.07437039
64	0x3cb3b57d	0.021937126
65	0xbe3365c4	-0.1751929
66	0xbcf6512a	-0.030067999
67	0xbe4a2c1c	-0.19743389
68	0x3e85062e	0.25981277
69	0x3e37d69a	0.17952958
70	0xbd8a2e65	-0.0674713
71	0x3c064312	0.008194702
72	0x3e4b14c5	0.19832142
73	0xbd653ffc	-0.055969223
74	0x3d83535e	0.064123854
75	0x3b847506	0.0040422706
76	0x3dee97f5	0.11650077
77	0xbe4aa4eb	-0.19789474
78	0x3d21691c	0.03940688
79	0x3e281bc9	0.16416849
80	0xbda02da9	-0.07821209
81	0xbd51a0df	-0.05117881
82	0xbe1ee7ac	-0.15518063
83	0x3e122da8	0.14275229
84	0x3d20177f	0.039084908
85	0xbdd966e6	-0.106153294
86	0xbe154c6b	-0.14579932
87	0xbdc96218	-0.09833163
88	0xbe25bc68	-0.16185153
89	0x3e00315e	0.12518832
90	0x3e48a483	0.19594006
91	0x3dbb409f	0.09143185
92	0xbe4db68a	-0.20089164
93	0x3d7b8150	0.06140262
94	0x3e2b763a	0.16744319
95	0xbe01ec56	-0.12687811
96	0x3d67b200	0.05656624
97	0x3e24c918	0.16092336
98	0xbdedc335	-0.116094984
99	0x3dec7c5c	0.11547157
100	0xbd7f22b7	-0.062288966
101	0x3e0e23a2	0.1388078
102	0x3dcfcdce	0.10146676
103	0xbe5880bb	-0.21142857
104	0x3d6c4c85	0.057690162
105	0x3e07e570	0.13271117
106	0xbe03504c	-0.128236
107	0xbe2e77d1	-0.17037894
108	0xbe300e9b	-0.17193072
109	0x3c120ba0	0.008913904
110	0xbe503e09	-0.20336165
111	0x3db3c8bb	0.08778521
112	0xbd79bf46	-0.06097343
113	0xbde3c82f	-0.11122166
114	0x3e11c2b8	0.14234436
115	0xbb9f9fa6	-0.0048713265
116	0xbe2c29a2	-0.16812757
117	0x3dcc08a6	0.09962587
118	0xbd3c72e8	-0.04600802
119	0xb95ff16e	-0.00021356877
120	0x3d147a50	0.03624946
121	0xbe4c99f1	-0.19980599
122	0x3e28c05a	0.16479626
123	0x3dc60117	0.096681766
124	0xbe486265	-0.19568785
125	0x3d042425	0.032261033
126	0x3d2b8125	0.04187121
127	0xbd549869	-0.051903162
128	0xbc50daad	-0.012747449
129	0xbe28727d	-0.16449924
130	0xbe1ea0b0	-0.15490985
131	0xbd4e1696	-0.05031451
132	0x3ca0dd0e	0.019636657
133	0xbdf9f9d7	-0.12205856
134	0x3b8e126b	0.0043356917
135	0x3d087b19	0.03332052
136	0x3db046ed	0.08607278
137	0x3dc22987	0.09480577
138	0xbe2a7f24	-0.16650063
139	0xbbb002f7	-0.005371447
140	0xbd0a0350	-0.033694565
141	0xbd3c44bc	-0.045963988
142	0x3ddbdd2b	0.10735544
143	0xbe7f497a	-0.24930373
144	0xbd39c630	-0.045355022
145	0x3e1d7bdf	0.15379284
146	0x3e3d5456	0.18489203
147	0xbd0ec181	-0.03485251
148	0xbe135678	-0.14388454
149	0x3d64f5fe	0.05589866
150	0xbd9d4bf3	-0.07680502
151	0x3dc723c2	0.09723617
152	0xbde8edca	-0.1137348
153	0xbe457c0c	-0.19285601
154	0x3c9ca826	0.019123148
155	0x3cbd2fdb	0.023094108
156	0xbd31d82e	-0.043419056
157	0x3c221dc1	0.009894789
158	0xbd4d8c8f	-0.050182875
159	0xbe095057	-0.13409553
160	0x3de92a06	0.113849685
161	0x3dede674	0.11616221
162	0xbe354ea0	-0.17705774
163	0xbdd02bb6	-0.10164587
164	0xbde6e666	-0.11274414
165	0xbe6f1daf	-0.23351167
166	0x3e329508	0.17439663
167	0x3e14aeb4	0.14519769
168	0x3db066f3	0.08613386
169	0x3e4b1e36	0.19835743
170	0xbe1d16a9	-0.15340675
171	0xbdc4a04e	-0.09600888
172	0x3d1b9456	0.03798326
173	0x3c3fe853	0.011713105
174	0xbe317a27	-0.17331754
175	0x3e1a6e13	0.15081052
176	0xbe207faa	-0.156737
177	0x3e020f46	0.12701139
178	0x3da16322	0.07880236
179	0x3d10ede6	0.035383128
180	0x3d0a706e	0.033798628
181	0xbdfbe079	-0.12298674
182	0x3d851767	0.06498604
183	0x3e5adebc	0.21374029
184	0xbe1951c7	-0.14972602
185	0xbc1deaf9	-0.009638541
186	0x3d3410f9	0.0439615
187	0xbdff6eaa	-0.12472279
188	0xbe43c8ce	-0.1911957
189	0xbd532f29	-0.051558647
190	0x3d635e1f	0.055509683
191	0xbd3ca447	-0.046055105
192	0xbc72e5a8	-0.014825262
193	0xbd67588a	-0.05648092
194	0xbd4d39c5	-0.05010392
195	0xbe135fe5	-0.1439205
196	0x3e4253d8	0.18977296
197	0x3e27311c	0.16327327
198	0xbe24fdbc	-0.16112417
199	0x3c592097	0.013252399
200	0x3e62e6e3	0.22158389
201	0x3cc44aa3	0.02396137
202	0x3e03526d	0.12824412
203	0xbc7138f0	-0.014723048
204	0x3cd1f791	0.025630744
205	0xbe5ac326	-0.21363506
206	0x3d857d9b	0.06518098
207	0xbe7250d8	-0.23663652
208	0xbe55168e	-0.20809385
209	0xbcdf33eb	-0.027246436
210	0xbcef20a8	-0.029190376
211	0xbce8b1ec	-0.028405152
212	0xbd102a27	-0.03519645
213	0xbc834770	-0.016025275
214	0xbe435d23	-0.19078498
215	0xbe4eaf89	-0.20184149
216	0x3e4ba365	0.19886549
217	0xbe0386b7	-0.12844358
218	0xbc5f429a	-0.013626719
219	0x3d8faa3f	0.07014894
220	0xbd8c85d3	-0.068614624
221	0x3d54b323	0.05192865
222	0x3d808297	0.06274908
223	0xbe35b202	-0.17743686
224	0x3da30332	0.07959594
225	0x3e37f7f4	0.1796568
226	0x3c85d859	0.016338514
227	0xbd367e4f	-0.04455405
228	0xbcfb3307	-0.03066398
229	0xbcc94d7d	-0.024573082
230	0xbe0b4484	-0.13600355
231	0xbe06331d	-0.13105436
232	0x3d03ca40	0.032175303
233	0xbe3ec50a	-0.18629852
234	0x3d84ebfb	0.06490322
235	0xbd1cb2b6	-0.03825637
236	0x3e270543	0.16310601
237	0xbd2d82cc	-0.042361066
238	0xbd3ab042	-0.04557825
239	0x3e2573f3	0.16157512
240	0x3e76a1cf	0.24085163
241	0xbe1d0ec4	-0.15337664
242	0xbdea874b	-0.11451586
243	0xbe07ad9e	-0.13249823
244	0xbc9e8b87	-0.019353641
245	0x3e5cdfe0	0.21569777
246	0xbe355cc3	-0.17711167
247	0xbdc4c26b	-0.09607395
248	0x3e4476c5	0.19185932
249	0xbe0c0113	-0.13672285
250	0xbe2d8d69	-0.16948475
251	0x3d09a713	0.0336066
252	0x397d4ad6	0.00024155839
253	0x3dbc873d	0.09205482
254	0xbe2a68f8	-0.16641605
255	0x3ca8330e	0.020532157

sequential/dense_3/MatMul f4 [10, 64]
0	0xbe5b5895	-0.2142051
1	0xbd7420d2	-0.059601612
2	0xbda6cb34	-0.08144227
3	0x3da4db0b	0.08049592
4	0x3dcc35d1	0.09971202
5	0xbea27509	-0.31729916
6	0x3e41ce9b	0.1892647
7	0x3dc99f6a	0.09844859
8	0xbde78830	-0.113052726
9	0x3ea71fb7	0.32641384
10	0x3d9b62a6	0.07587175
11	0x3d864467	0.065560155
12	0x3df2675a	0.11836119
13	0x3e460b33	0.1934021
14	0x3e77d46a	0.24202123
15	0xbe8a6034	-0.27026522
16	0x3e4042ad	0.18775435
17	0xbd7d2443	-0.06180216
18	0x3e7fb993	0.24973135
19	0xbe1c3dea	-0.15257993
20	0x3d8ce283	0.06879141
21	0x3cb0fc3e	0.021604653
22	0x3e87f37a	0.26552945
23	0x3e8b4a6d	0.2720522
24	0xbe476348	-0.19471467
25	0x3c3c4add	0.011492458
26	0xbe41b0c7	-0.18915091
27	0x3e8bc1c4	0.2729627
28	0x3d69609e	0.056976907
29	0x3e2ed758	0.17074335
30	0xbd99915d	-0.07498429
31	0x3e631d8b	0.22179238
32	0xbe63ee2a	-0.22258821
33	0xbdd6a668	-0.10480958
34	0xbe9547c9	-0.2915633
35	0x3ce119f9	0.027478205
36	0x3e96e1b1	0.29469064
37	0xbe7a9138	-0.24469459
38	0xbe1c7678	-0.15279567
39	0xbd9d6966	-0.07686119
40	0x3d9c4a2a	0.07631333
41	0xbe956c4d	-0.2918419
42	0x3e4e3d3a	0.20140544
43	0xbe83c3cd	-0.25735322
44	0xbe92377d	-0.2855796
45	0xbe8174dc	-0.2528447
46	0xbdf7d3fd	-0.121009804
47	0x3d90291e	0.070390925
48	0x3e675f3b	0.22594921
49	0x3e2226b1	0.15835072
50	0xbe5621a2	-0.20911267
51	0xbc3d28fc	-0.011545416
52	0xbd43a8f8	-0.047768563
53	0xba951132	-0.0011372922
54	0x3e0d2348	0.1378299
55	0xbe37b1e2	-0.1793895
56	0x3da2a15f	0.07940935
57	0xbc934872	-0.01797888
58	0x3e38ebdd	0.18058725
59	0xbe685617	-0.2268909
60	0x3e7ef89f	0.24899529
61	0x3d4d6b5f	0.050151225
62	0x3e7a316b	0.24432914
63	0xbe90868e	-0.28227657
64	0xbd9d1e16	-0.07671754
65	0xbc04d80e	-0.008108152
66	0x3c574ecf	0.013141348
67	0x3be7d7be	0.007075279
68	0xbd6e5091	-0.058182303
69	0xbdd16dfc	-0.10226056
70	0x3e6f3575	0.23360236
71	0xbd323be2	-0.04351414
72	0xbeae98ac	-0.34100854
73	0xbd8b4135	-0.06799547
74	0x3e090c34	0.13383561
75	0x3e546680	0.20742226
76	0xbe15a51c	-0.14613765
77	0x3e5a39a5	0.21311052
78	0xbea4e197	-0.3220336
79	0xbe573f27	-0.21020184
80	0xbe98b28a	-0.29823714
81	0xbe9ecffc	-0.31018054
82	0x3e30dd23	0.17271857
83	0x3e5204ee	0.20509693
84	0x3e611bea	0.21983305
85	0x3d087f42	0.033324488
86	0x3e5f1cd6	0.21788344
87	0x3e4b0d29	0.19829239
88	0xbe8d510d	-0.276009
89	0xbe4a1969	-0.19736256
90	0x3e363368	0.17793047
91	0x3e4d4f1d	0.2004971
92	0x3e1459c4	0.14487368
93	0xbd485b79	-0.04891536
94	0x3e1d55c0	0.15364742
95	0x3e174abe	0.14774606
96	0xbe7e7822	-0.24850515
97	0x3e990b11	0.29891255
98	0xbeb1c11c	-0.34717643
99	0xbeb98446	-0.3623373
100	0xbe92dd82	-0.28684622
101	0x3e4cfff5	0.20019515
102	0xbe47f243	-0.1952601
103	0x3de53178	0.11191076
104	0x3c25b64d	0.010114265
105	0x3d7d04e3	0.06177224
106	0xbdf54389	-0.11975772
107	0xbe9c0db1	-0.30479196
108	0xbe935873	-0.2877842
109	0x3e478a04	0.19486243
110	0xbda9293a	-0.082598165
111	0xbde1c372	-0.11023606
112	0xbe9dff2a	-0.30858737
113	0xbe050dfc	-0.12993616
114	0xbd495bf2	-0.04915995
115	0x3e743f5d	0.23852296
116	0x3dcf090a	0.10109146
117	0x3e29aad9	0.1656908
118	0x3e8e6211	0.27809194
119	0x3e7e49ac	0.24832791
120	0xbeaa7dc3	-0.33299074
121	0x3e90e476	0.28299302
122	0xbe89ba6b	-0.26900038
123	0x3da7a5a2	0.08185889
124	0x3e2ed1ec	0.17072266
125	0xbd291e70	-0.041288793
126	0xbd74f87f	-0.059807297
127	0x3d449c56	0.048000656
128	0x3e5707b8	0.20999038
129	0x3e1bb857	0.15207039
130	0xbe9da96e	-0.30793327
131	0x3e9f8203	0.3115388
132	0xbd61ba09	-0.055109058
133	0x3e0ff2c2	0.14057449
134	0xbe0e78ec	-0.13913316
135	0xbe2d0224	-0.16895348
136	0xbe85619f	-0.2605104
137	0x3e46db88	0.19419682
138	0xbc8919e5	-0.01673598
139	0x3d1cc214	0.038271025
140	0x3d7891cf	0.06068593
141	0x3e505f14	0.2034877
142	0x3cf0e8ba	0.029407848
143	0xbe8e55c2	-0.27799803
144	0x3da3673e	0.07978676
145	0x3ca6f2f7	0.020379527
146	0x3bb0720f	0.0053846906
147	0xbe915bdc	-0.28390396
148	0xbd2e29fe	-0.042520516
149	0x3e9ccc59	0.30624655
150	0xbc5bb133	-0.013408947
151	0xbe0f273a	-0.13979807
152	0x3dfecd04	0.124414474
153	0x3de6d6f8	0.11271471
154	0x3df27de3	0.11840417
155	0xbe2b2565	-0.16713484
156	0xbe47e9ff	-0.19522856
157	0x3e619686	0.22030076
158	0xbda7ca93	-0.08192935
159	0x3d0bd26d	0.034136225
160	0xbd7f91a0	-0.06239474
161	0x3e3f286d	0.18667765
162	0xbe86c847	-0.26324674
163	0xbe691f54	-0.22765857
164	0xbdc1349f	-0.09433865
165	0xbd7340d4	-0.059387997
166	0xbe728abf	-0.2368574
167	0x3e68b4a3	0.22725157
168	0xbe05bfd2	-0.13061455
169	0x3d731a78	0.059351414
170	0xbe7b439b	-0.24537508
171	0x3d9f89c4	0.077899486
172	0xbe74c1c9	-0.23902048
173	0xbd292fc3	-0.041305315
174	0xbe0d79b1	-0.13815953
175	0xbda647ea	-0.08119185
176	0x3d4e456a	0.050359167
177	0xbe23264f	-0.15932582
178	0xbd089dda	-0.033353664
179	0xbdc37322	-0.09543444
180	0xbe093641	-0.13399602
181	0xbcc2b050	-0.023765713
182	0x3d2b0350	0.041751206
183	0x3d05a1e2	0.032625087
184	0xbe20b8e2	-0.15695527
185	0xbdb5b099	-0.08871574
186	0x3e64316c	0.22284478
187	0xbd98415f	-0.074343435
188	0xbe483743	-0.1955233
189	0x3e454db8	0.19267929
190	0xbe1d7b6c	-0.15379113
191	0x3e1c33dc	0.15254158
192	0xbe01cd61	-0.12676002
193	0xbe80ece8	-0.25180745
194	0xbe672fd6	-0.22576842
195	0xbe417461	-0.18892051
196	0x3e514a4f	0.20438503
197	0xbd28ddaf	-0.04122704
198	0xbd97edc0	-0.07418394
199	0xbe2c0eb2	-0.16802481
200	0xbe8417f4	-0.25799525
201	0x3e47cdd2	0.19512108
202	0xbdee8717	-0.1164686
203	0xbe584e0e	-0.21123526
204	0x3e85b79e	0.2611665
205	0x39e97952	0.00044531614
206	0xbe3d096e	-0.18460628
207	0x3dfccd39	0.123438306
208	0xbe448a74	-0.1919344
209	0x3e2e9536	0.17049107
210	0x3e4f7a36	0.20261464
211	0xbe6ab604	-0.22920996
212	0x3e42b1ff	0.19013213
213	0x3e3e175b	0.18563597
214	0x3e5860d3	0.21130686
215	0xbda628af	-0.081132285
216	0xbd25b6ab	-0.04045741
217	0x3e13124b	0.14362447
218	0x3e42dca1	0.19029476
219	0x3e40769d	0.18795247
220	0x3d8b4599	0.06800384
221	0x3e7d119b	0.24713747
222	0x3c63cbd0	0.013903573
223	0xbe3517c6	-0.1768485
224	0x3e3a9a4f	0.18222927
225	0x3dcd7410	0.10031903
226	0x3e16e561	0.14735939
227	0x3c310d63	0.010806414
228	0x3e229801	0.15878297
229	0x3e0014e4	0.12507969
230	0xbe125d0e	-0.1429331
231	0x3e1cffec	0.15332001
232	0x3e29d4b8	0.16585052
233	0x3db429aa	0.08797009
234	0xbe6e7933	-0.23288421
235	0xbe9bc23b	-0.30421624
236	0x3e878911	0.2647176
237	0xbe15aa3a	-0.14615718
238	0xbea256c1	-0.31706813
239	0x3e87f930	0.26557302
240	0xbe00052f	-0.12501977
241	0xbe398d21	-0.18120243
242	0x3deaad12	0.11458792
243	0x3e0147f5	0.12625106
244	0x3caa0704	0.020755298
245	0xbd870989	-0.065936156
246	0xbe9cb697	-0.30608055
247	0x3e337d4c	0.17528266
248	0x3e1732bb	0.14765446
249	0x3d3b4359	0.045718525
250	0x3e1433c0	0.14472866
251	0xbd91570a	-0.070966795
252	0xbd9864a8	-0.07441074
253	0xbdf83a2e	-0.12120472
254	0xbd631d9c	-0.05544816
255	0x3d570490	0.052494586
