projet/resources/model/NeuralNetwork.tflite (tflite, 579840 bytes, 8 tensors)

sequential/dense_1/BiasAdd/ReadVariableOp f4 [64]
00000000: 8c69 2ab9 be29 66bc e37b 0cba 804b 1a3c
00000010: 88bf b93c 7eeb 823c 9e83 3bbb 8e50 27bc
00000020: e858 163c 43ff 89ba d638 8c3c 8f45 0ebd
00000030: e3e3 863c db80 8fbb c064 853c 9548 c23c
00000040: de4b a9bb 2663 363c 586c f0bb 18ce 763c
00000050: e6e9 0f3d fe3b 893c e028 34bc 1c99 f7bc
00000060: 2900 58bc bdb0 89bc 9a8c 04bd f869 1f3b
00000070: f13a e6bb a52b 4d3c 63c1 613b 7a1c 5bbc
00000080: c708 84bc b41e 813c 1296 913c 17d6 b63c
00000090: 113b c03c 83fa 97bc 2c5e b93b 56a5 f63c
000000a0: 7072 033a 21ec 693c 7e72 ac3c 38fd d53b
000000b0: cce9 a73c c55a 7cbc 6a57 143c 2b8e fe3a
000000c0: 4528 a13c 0296 c8b9 266d a83b 9960 82bc
000000d0: 8dc4 7fbb 102b 1fbb 1373 0d3d 3018 6e3b
000000e0: 3b2b 36bc 934b ce3a 4fe9 96bb 5135 93bc
000000f0: 501f 633c fadf 4e3c a7d1 0d3d c277 9e3c
-0.00016251783 -0.014048038 -0.0005359037 0.009417415 0.022674337 0.015981432 -0.0028612386 -0.010212077
0.00917647 -0.0010528344 0.017116945 -0.034734305 0.016466087 -0.0043793744 0.016283393 0.02371625
-0.005166515 0.011132037 -0.0073371343 0.015063785 0.035135172 0.01675224 -0.0109960735 -0.030224375
-0.013183632 -0.016807908 -0.03236065 0.0024324637 -0.0070260693 0.012522613 0.0034447543 -0.013373489
-0.016117467 0.01576171 0.017771754 0.022318883 0.023465665 -0.01855207 0.005656978 0.030108135
0.0005014306 0.014277489 0.021050688 0.00653043 0.020497225 -0.0154025005 0.009054044 0.0019421031
0.019672522 -0.00038258737 0.0051399646 -0.015915202 -0.0039027066 -0.0024287142 0.03453357 0.0036330335
-0.011118705 0.0015739076 -0.0046054493 -0.01796976 0.013862446 0.012626642 0.03462377 0.019344214

sequential/dense_2/BiasAdd/ReadVariableOp f4 [64]
00000000: 89fa 843c 22d5 95bc 1167 81bc 96e2 a23c
00000010: aaba afbc 8753 d53c d74e 99bb 1cf7 1ebd
00000020: 8f6f d2ba f89d 0ebd 11e9 383b ef55 a13b
00000030: 71f0 0fbb 68ba 033a c554 9bba b956 1bbc
00000040: 5c99 9ebc 2433 1aba 932f dabb 68a2 b93b
00000050: afe4 253d 1da0 833b 85ff a9bc a4b2 a3bc
00000060: 4294 ea3c cb10 133d 1233 15bc 5ca4 2a3b
00000070: f32f ba3b 9b47 47ba cd39 f43b a1ca 833c
00000080: f9ee 1e3c 372c bc3c 5fa5 6f3d 7e69 a03b
00000090: d090 debb e408 1b3c 3c0b d5bc 13e5 c2b9
000000a0: c3fd 8339 8bd6 f13c 1482 02bc a7b6 033d
000000b0: 8650 acbb f271 1d3d 80b6 973d 00a0 a03c
000000c0: b46d 0fbc 2679 15bd bdd6 8a3a 0b03 79bc
000000d0: 6196 0a3d 9b7d 683d 7478 ddbc a3fa 793b
000000e0: 3049 393c 66e4 173b 09bb 923d 72ec 94bb
000000f0: 6c39 96bc 7536 393c cf15 3bbb 1a4d eebc
0.016232746 -0.018290106 -0.015796216 0.019883435 -0.021451313 0.026040806 -0.004678588 -0.03880988
-0.0016054976 -0.03481862 0.002821509 0.004923574 -0.0021963383 0.000502503 -0.0011850825 -0.0094811255
-0.019360237 -0.00058822543 -0.0066585033 0.0056651123 0.040501293 0.0040168897 -0.020751724 -0.019982643
0.028635148 0.035904687 -0.009106414 0.0026037907 0.0056819855 -0.00076019176 0.0074531795 0.016087832
0.00970053 0.022970302 0.05850732 0.004895388 -0.0067921653 0.009462569 -0.026006334 -0.00037173237
0.00025175334 0.029521247 -0.007965583 0.032156613 -0.0052586226 0.038438745 0.07407856 0.019607544
-0.008754183 -0.03649249 0.0010592561 -0.015198479 0.03383482 0.05676041 -0.027034976 0.0038143776
0.011308953 0.0023176908 0.071645804 -0.004544788 -0.018337928 0.0113044875 -0.0028546934 -0.0290895

sequential/dense_3/BiasAdd/ReadVariableOp f4 [10]
00000000: 97f8 dcbc 3fcb 69bd ec60 d83b e7a0 873d
00000010: ab8e 0d3c d47d 54bb 9ec5 e8bc 19ff aa3a
00000020: f6e6 9e3c dee1 0a3b
-0.026974006 -0.057078596 0.006603351 0.066224866 0.008639972 -0.0032423632 -0.028414544 0.0013045996
0.01939724 0.0021191756

sequential/dense/BiasAdd/ReadVariableOp f4 [128]
00000000: 272c af3c f6dd 893b 2fe0 453c 6fcb 403c
00000010: 5c6a 27bc 203a adbc 4191 ba3c 2060 ad3c
00000020: 11e7 ce3c bad4 383c 8e6b 42bd d9ec ecbc
00000030: f06d 183c 1174 66bc ef0b 1f3b 9d62 7b3c
00000040: dc0a 6dbc 8a0a 8fbc b219 903b 9459 04ba
00000050: 77cc 253c 1a52 693c 6ace 893b 42fb c8bb
00000060: 402f e6b7 5415 033b 0fc7 dabc dcdd 01bc
00000070: 416e 073c 2269 e53c 8c34 083c 51a9 e9bb
00000080: 2a29 4dbb 32c7 5ebc 4292 38bc 098d e53c
00000090: 73fe 3c3c f5a3 793c 4897 5dba 52ba 56bc
000000a0: 0a58 073c 0ceb ec3a ac4b 8639 200c 083c
000000b0: e239 7a3c 2768 b83b d06b 12bc d2df 0abb
000000c0: 2d53 ae3b da2a abbc d6fb a23a 5cb2 86bb
000000d0: b9bb 02bc 344e 83bc 27e8 1fbb 2b8c b1bc
000000e0: eafe 02bd fa3f 2bbc 548c dcbc bf48 4a3b
000000f0: eca2 a73b 2651 5fbc 7ce0 99bc fa1d 323c
00000100: d175 793c 9899 bbbc 5feb 873c d9e0 cc3b
00000110: f3cb 13bd c096 0138 614f 2b3b 7ef9 9f3b
00000120: a107 41bc 3943 c63c 1102 8cbb 8060 e43c
00000130: 23fa 343c f82f 433b 79bb a13b 21d3 2e3c
00000140: af86 50bc 07f1 5d3c 8e8c 42bc d5be 7fbb
00000150: 9e82 66bc 40c5 d53c baed 2f3c 3561 91bb
00000160: e4c7 aabb ed6a 24bc 8c6e 473c 7dd7 a33b
00000170: 20d6 6bb9 62fe 243c ce48 1ebc f0ed c139
00000180: 5577 7bbc 2ea7 d839 7462 743b 9e8c 683c
00000190: ab2d 5d3b 56de b13c 6dc1 65bc 79a1 823c
000001a0: 95e8 f23b da33 063d 5ca4 e9bc 650f 85bb
000001b0: 108d b93c ba92 00bc a9db 063d 0c1b 09bb
000001c0: 27ff 723c 1c95 4b3c 4eae 8dbc bdbc 70bc
000001d0: 649b 463c e3e2 08bc 4f35 0b3c 48e3 5b3c
000001e0: 67dd 87bc 7e9a 823b dea2 c53c b80f 2b3b
000001f0: 80d4 bb3b 4f51 58bc 35b3 ad3c 68c5 d9bb
0.021383358 0.004207368 0.012077375 0.011767252 -0.010218229 -0.02114588 0.02277434 0.021164
0.025256665 0.011281187 -0.047465853 -0.028921532 0.009303555 -0.014065758 0.0024268588 0.015343335
-0.014467921 -0.01746108 0.0043975944 -0.00050487486 0.010119549 0.014240766 0.0042055147 -0.006133468
-2.744014e-05 0.0020001726 -0.026706247 -0.007926431 0.008266033 0.028004233 0.008313309 -0.00713078
-0.0031305053 -0.013597297 -0.011265339 0.028021352 0.011535275 0.015236844 -0.00084530236 -0.013105946
0.008260736 0.001807542 0.00025614852 0.008303672 0.015272589 0.0056276503 -0.008936837 -0.0021190536
0.005319974 -0.020894457 0.0012434672 -0.0041106176 -0.007979327 -0.016028501 -0.0024399848 -0.021673283
-0.031981386 -0.010452265 -0.026922382 0.0030866114 0.0051158573 -0.013630187 -0.0187838 0.010871405
0.0152258435 -0.022900388 0.016591726 0.00625239 -0.036083173 3.0896394e-05 0.0026139843 0.0048820367
-0.011781604 0.024201976 -0.0042727073 0.027878046 0.011045965 0.002978323 0.0049356786 0.010670454
-0.012727424 0.013546235 -0.011874331 -0.0039023657 -0.0140692275 0.026095033 0.010737831 -0.004436637
-0.005211817 -0.010035259 0.0121723525 0.0050000534 -0.00022491114 0.010070415 -0.009660913 0.00036989106
-0.015348275 0.0004132329 0.0037290128 0.014193682 0.0033749144 0.021712463 -0.014023167 0.015946137
0.00741298 0.032764293 -0.028520755 -0.004060673 0.022650272 -0.007847482 0.032924328 -0.0020920662
0.014831341 0.012425687 -0.017295029 -0.014693436 0.012122009 -0.008354875 0.0084965965 0.013420887
-0.016585065 0.003985702 0.024125513 0.0026101898 0.005732119 -0.013202979 0.021203617 -0.006645847

sequential/dense/MatMul f4 [128, 1024]
00000000: a9a3 94bc a8c9 9a3c 8dd3 fabc 72b0 1e3c
00000010: 245a c8bc fad0 8cbd fefa c33c 0a0f 1b3c
00000020: a943 55bd f40a a4bd b826 36bd a0fd aabd
00000030: 4e77 45bd a494 1ebd 5fc4 b6bd 512e adbd
00000040: ae24 2a3b 49bd b9bc 7ada 483c 85f4 63bc
00000050: fca3 26bd ae7c ef3c d796 643d 669b bbbb
00000060: 5949 21bd 7457 7b3d f172 bcba dd7c 6ebd
00000070: c82c 8a3c 58fb 84bc 792d ea3b 681a 2cbd
00000080: 1432 593d 299b dfbc 045e 473b 534f 773d
00000090: 5a8a 983d 1da9 fb3c dabb 24bd c1d4 1c3c
000000a0: 8690 c63d 9d55 1abc 191b e13c 5b45 213d
000000b0: f135 bcbc 3c1c 9d3d 01a0 da3a 5747 ae3d
000000c0: b2ca f3bc 2d42 1bbc c210 2c3d f03d 1e3d
000000d0: 1160 c63c abcf 693d 05ca 68bd 9c79 fd3c
000000e0: 231d 55bd f71e 923c fb90 8f3c 39f9 98bc
000000f0: 5ca7 b1bd 727f 9b3b 1275 40bd 1ce3 32bd
00000100: c7e9 783c 6c1f 93bd ef2d 053c f871 1bbd
00000110: 48f6 9fbd 95fc 2cbd 9978 37bd df60 4ebb
00000120: 7d57 cf3c 7b15 82bd 960b 8fbd f397 1ebd
00000130: 1051 a9bd 79c1 a0bd 7496 9dbd 8839 2e3b
00000140: dc7a 433d 3444 fdbb b9f5 fe3b 1446 17bd
00000150: 50f4 25bd 6d8e 073d 690f 7a3d 01c3 793d
00000160: 521d 123c 704e 383d 6c74 873c aeed 48bd
00000170: 5b5a 05bd 8f41 01bd b303 7d3d fe36 b7ba
00000180: 8aec 7cbd f375 26bd 7e41 053c d9be 1a3d
00000190: 3887 193c 9ad8 5c3d 994f 54bd 5e6b 2f3b
000001a0: 48e9 25bd d5c6 1b3d 2830 f8bc 2f36 0e3d
000001b0: de8d 1bbd 29bb 903d c668 9bbd 7972 77bd
000001c0: d472 8abd ef9d bbbc ed09 03bd ebe2 b9bb
000001d0: 1110 843c 6ff5 f73c 765c 293d de3f 1a3d
000001e0: 5dbe 303c a03a 2ab9 f2ff 2ebd dcb3 163c
000001f0: 54bc 10bd e10a bc3c 21b4 a3bd 3aac 143d
00000200: 6974 94bd f4da bd3b 4068 42bd 9d4b 92bd
00000210: 5b86 f9bc 3a33 fabb c84d f5bc 4bdb 573d
00000220: 60a2 34bd 0e00 f63b 620c cb3c ec9f fdbc
00000230: 2f54 17bc 8a51 e7bc e2be 6d3d f8e5 c6bc
00000240: 7934 d7bb 3ad4 ddbc 86c7 92bc 91cc 043d
00000250: e694 39bc e22c a6bb 7eff 76bd 1c47 54bd
00000260: dd9c 7cbc 613f 28bd 9f0d 773b 805a 5abd
00000270: f797 aa3c b0f3 91bc 14df f83b 9f4a c3bc
00000280: 9595 02bc 30d9 053c 6ab4 36bd 1cb9 92bd
00000290: 5d8c e63c bcb3 8439 6185 523d 23cb 75bd
000002a0: 842f 873d 5b73 babb 2a4c 843d b169 283d
000002b0: bf53 9c3d bb18 363b 82e3 793d f08a f03b
000002c0: d712 053d adea a9bc d641 413c 656b 0c3b
000002d0: 4ce1 ec3c 69d6 363d 6e4f 82bd e960 523c
000002e0: 1bae 633d fbf2 64bd 9479 803d 55f2 ed3c
000002f0: b2f8 1f3d 77a6 5a3c 2b0f 403b 7367 da3c
00000300: 1e20 57bc 2e51 193d e707 4bbc 6613 45bd
00000310: 5bb5 ac3c acc6 53bd 9cdd 8e3d bae4 72bd
00000320: f7f3 e7bc 6678 853d a0ac a8bb 9862 4fbc
00000330: f091 893d e205 72bb aa14 d8bc 6126 18bd
00000340: 6b0f 7cbc fbec 893d c145 253d f16b 84bd
00000350: 36c6 6f3d 0567 753d 45d8 34bb 1513 10bd
00000360: c3f8 20bd 998e 4e3d 5ecf 7c3d f775 bfbb
00000370: cc55 04bb 2ada 143d c30d e4bc ffc2 203d
00000380: 0929 8e3d 6ffd 183d 0912 eebc 2dbc f43a
00000390: d26f a23d 889e 3cbd f060 93bc 485a f13c
000003a0: 0286 803d d943 4ebd c8d6 18bd 842a cabc
000003b0: 187d ef3c 900b f73b 203d a6bc 02a4 193d
000003c0: ba37 55ba 3145 ebbc 3ad5 a83d bb1a 70bc
000003d0: 0baf 4ebc d518 163d c9ab ad3d 404d a03c
000003e0: af72 013d 35b2 29bd af2c e9bc 88b9 f4bc
000003f0: a97e 31bd c919 9c3c 60a8 c0bb 69eb 363c
-0.018144445 0.018894985 -0.030618453 0.0096856225 -0.024457045 -0.068757966 0.023923393 0.009464035
-0.05206648 -0.08009902 -0.04447052 -0.083491564 -0.04820948 -0.038715973 -0.089241736 -0.084561
0.0025961804 -0.022673266 0.01225912 -0.0139132785 -0.04068373 0.029234257 0.055807915 -0.005725312
-0.03937659 0.0613627 -0.0014377517 -0.058224548 0.016867056 -0.016233131 0.007146534 -0.04201737
0.053026274 -0.027295666 0.0030421028 0.060378384 0.074482635 0.030720288 -0.04021821 0.009572209
0.096955344 -0.009419826 0.027478741 0.039372783 -0.02297494 0.07671401 0.0016679765 0.08509701
-0.029759739 -0.009476227 0.04200817 0.038633287 0.02421573 0.057082813 -0.056833286 0.030941777
-0.05202974 0.01783703 0.017525187 -0.018673526 -0.086744994 0.0047454173 -0.046986647 -0.04367362
0.015192456 -0.071837276 0.008128627 -0.037950486 -0.07810646 -0.04223307 -0.044792745 -0.0031490845
0.025310272 -0.06351753 -0.06984632 -0.03871913 -0.082674146 -0.07849402 -0.07694712 0.0026584584
0.04772459 -0.0077290777 0.0077807573 -0.036932066 -0.040516198 0.033094812 0.061049853 0.060976986
0.008918123 0.04499668 0.016535006 -0.049054794 -0.032556873 -0.031556662 0.061771106 -0.0013978181
-0.06174902 -0.04063983 0.00813329 0.037779663 0.009370618 0.053917505 -0.051833723 0.0026766877
-0.040505677 0.038031418 -0.0302964 0.034719642 -0.037977092 0.07066948 -0.07588343 -0.060411904
-0.06760183 -0.022902457 -0.031991888 -0.0056728027 0.016120942 0.030268399 0.041347943 0.037658565
0.010787574 -0.00016234303 -0.042724557 0.009198155 -0.035335854 0.022954406 -0.07993341 0.03629706
-0.07248766 0.0057939235 -0.0474627 -0.07143328 -0.030459573 -0.007635501 -0.029944316 0.05269937
-0.044100165 0.0075073307 0.024786178 -0.030960046 -0.0092363795 -0.028237123 0.05804337 -0.02427958
-0.0065675345 -0.027078737 -0.017917406 0.032421652 -0.011327004 -0.0050712684 -0.06030225 -0.051825628
-0.0154182585 -0.041076068 0.0037697328 -0.053308964 0.020824416 -0.017816395 0.0075949524 -0.023839293
-0.007970233 0.008169457 -0.04460565 -0.07164213 0.028143102 0.00025310914 0.05139673 -0.06000818
0.0660086 -0.005690021 0.0645984 0.04111642 0.07633161 0.0027785737 0.061007984 0.0073407814
0.03248867 -0.020741785 0.011795482 0.0021426317 0.028916024 0.04463807 -0.06362806 0.012840488
0.05558596 -0.055895787 0.06273189 0.029046217 0.039055534 0.013345352 0.0029305916 0.026660657
-0.013130216 0.037430935 -0.012392021 -0.048114203 0.02108257 -0.05170314 0.069758624 -0.059300162
-0.028314574 0.06517105 -0.0051475316 -0.012657784 0.067172885 -0.0036929776 -0.02637704 -0.037145976
-0.015384535 0.067346536 0.040349726 -0.06465901 0.058538638 0.0599127 -0.0027594727 -0.035174448
-0.039299738 0.05042896 0.0617212 -0.00584292 -0.002019274 0.03634087 -0.027838593 0.039248463
0.069414206 0.037351068 -0.029061334 0.0018671803 0.07931484 -0.046049625 -0.01799056 0.029461995
0.0627556 -0.050357673 -0.037314206 -0.024678476 0.029234454 0.00753922 -0.020292819 0.037509926
-0.0008133609 -0.028719516 0.08243795 -0.014654811 -0.012614976 0.036644775 0.08480031 0.019568086
0.03160351 -0.041429717 -0.02846369 -0.029873624 -0.043333683 0.019055264 -0.005879447 0.011164525

sequential/dense_1/MatMul f4 [64, 128]
00000000: 2bbd ff3d a60c e63c b3b7 c2bd 7cf8 553d
00000010: ae9b 1b3e 2c98 69bd 1b8b 043e 481a 9b3d
00000020: 9fb7 88bc 2231 143e 762d 75bd 2209 0e3c
00000030: 6d4a 94bd c0aa 213e 9a89 983c 34c0 3abe
00000040: 3e22 a4bd f5eb 413c faa4 a43c da9b b7bd
00000050: 602c 32be 3c0f 87bd 83f3 73bd 05b4 ae3d
00000060: 27dc 2a3e 622f 18be f55d 29be b19c 193e
00000070: e9ea 00bc 0351 07be 3827 04be 7b10 1ebe
00000080: 9dd8 16be fea7 1b3e accd 13bc 374a d1bd
00000090: 9ff3 083e 1ea1 363d b1ec 0f3e 6b1d a83d
000000a0: a0e3 d23d 611c 78bd 7b72 de3d ba68 3a3d
000000b0: fa46 34bd a7b9 c6bc adfa 1cbe 0f91 0bbe
000000c0: 9845 04be f1e0 97bd 30ff 203e 7e14 083e
000000d0: d5a5 c73b dc35 82bc bdd4 8dbd 08a4 6cbc
000000e0: 8378 3bbd f334 e63c c2e4 a83d 4b39 193e
000000f0: 2526 e1bd d45b 743c 8028 adbd da04 85bd
00000100: e529 123e a0fc 44be 1837 21be 7c69 033e
00000110: fed0 123d 7e71 41bd 81d8 86bd 228c fb3d
00000120: 36b9 b8bd f8f4 5f3d 091d d13d d2aa 283e
00000130: 386b c33d 0735 16be 54c7 6abd 4dcc f3bd
00000140: 09aa 283e cf03 813d 6e50 68bc e907 a2bc
00000150: 813e f93c ecc7 9b3b 0211 943d d674 b03d
00000160: 2395 bd3d 3b0a 113c 08df 093e 8d84 01be
00000170: 3ee6 5a3d 5e34 0dbd e411 513d e9eb 703c
00000180: 45cf 693c 2f69 2bbe d990 17be 8a22 04be
00000190: 4651 78bc 6b4b edbd 6a56 04be f30a f83c
000001a0: 74b1 923d 5471 35be ae61 c5bb 5021 203c
000001b0: 20bb 1bbe 1107 abbc a891 793c e0e1 6d3c
000001c0: b92a 9a3c fc51 11be 295a 753d b085 c43d
000001d0: 3aa5 3cbd a168 0ebe bf5b 87bd b9a8 4abd
000001e0: 3cda c5bd 39e1 1abe 7aa5 773d 8b77 f2bd
000001f0: e5c9 26be 69d7 fd3c bb59 fd3d 399f 5f3d
00000200: c899 8f3d 36c2 13bd 4346 28be b896 ebbb
00000210: f93f 2a3e 796b 9fbd dfcf 173c 5256 253e
00000220: dbf6 e43c e405 033c ff26 9f3d e97e 32be
00000230: 25b4 0abd 6811 f9bd 9c03 ff3d 8aba 39bd
00000240: ae23 443d 0127 b73d b32b d53c 2d66 4b3d
00000250: 8101 29bd c9e3 c3bd 7da6 0e3d 31e6 d13d
00000260: 4f68 1b3e 1da3 fd3d d01d f4bd 2e31 253c
00000270: fbb0 513c 21f3 79bd 9459 31be 6c25 07be
00000280: 492c 4a3d e06e 9a3c e709 dcbd d76c b13d
00000290: 3eb0 7e3c 0ebf 94bd 7b08 0c3e e986 103e
000002a0: 4549 05be 4222 02be 7883 82bc 1535 a7bd
000002b0: 2898 83bd 0479 06be 2ad1 abbd a535 38be
000002c0: d320 8b3d 5a6b 1f3e 2691 11be f4bc adbd
000002d0: 2bce 73bd 881f a93d fd53 5cbd d4c9 1ebe
000002e0: ae0b ef3d 8e8a 03bd 529e 04be d7b2 c3ba
000002f0: 5141 65bd a433 08be a92d 5dbd eee3 24be
00000300: 6f1a f23d a35e d9bd 6bed 953d 6095 0d3d
00000310: 6563 9b3d 8463 a0bd ee32 033d 04c1 b6bd
00000320: 3491 233e 7f2a 03be 8085 cdbd 6f63 4cbd
00000330: a010 1f3d fff1 b43d 5757 eb3d 05fb ebbd
00000340: 8768 09bd 3cc1 e4bd f487 71bd e2db 90bd
00000350: 1c99 20bd 3cef d7bc f9d8 593d ba05 3cbe
00000360: 75da 97bd 7cd0 afbd 15e4 08bd fe8d d6bd
00000370: bf13 c3bc 5b46 babd 2b25 75bb 371b 8fbd
00000380: 7dac dabd b93c 0e3e c7b9 dabd 06c9 3abd
00000390: 0ee0 043e 02ab 32be b93c 5fbc 4cf9 12be
000003a0: 48e3 c53d e2ba 093d 2bb5 b4bd 2f25 fbbc
000003b0: 5884 3bbc 5e8d 6ebd c10e 533d 75cd e0bd
000003c0: 4ae3 95bd 471b d43d 494a 2c3d 1167 c4bb
000003d0: 1045 38be feff 8e3d 9002 2c3d 4e8f bc3c
000003e0: c330 a13c 152c c13d 2891 5abd 4b7d 2fbe
000003f0: 97c5 94bc dc8b 06be 213b f93d 1dad ac3c
0.12487253 0.028082203 -0.09507694 0.052238926 0.15196106 -0.057029888 0.1294369 0.07573372
-0.01668912 0.14471868 -0.059857808 0.00866917 -0.07240758 0.15787792 0.018620301 -0.18237382
-0.08014344 0.011836042 0.020098198 -0.08965273 -0.1739974 -0.065947026 -0.059558403 0.0853043
0.16685544 -0.14861825 -0.16539748 0.1500118 -0.007868507 -0.13214497 -0.12905586 -0.15435974
-0.14731069 0.15200803 -0.009021204 -0.102192335 0.13374184 0.044587247 0.14055134 0.08208736
0.10297322 -0.06057394 0.10861679 0.04551003 -0.044013 -0.024258448 -0.1533 -0.13629554
-0.12917173 -0.07415951 0.15722346 0.13289067 0.0060927668 -0.015894823 -0.06925342 -0.014443405
-0.045769226 0.02810142 0.08246757 0.14963262 -0.109936036 0.014914472 -0.084549904 -0.06495066
0.14273794 -0.19236994 -0.15743673 0.12833208 0.03584384 -0.047227375 -0.065842636 0.122825876
-0.09019701 0.05467698 0.10210616 0.16471413 0.09541935 -0.14668666 -0.057319 -0.11904202
0.16471113 0.062995546 -0.014179332 -0.019779162 0.030425312 0.004754057 0.072298065 0.08616035
0.09256961 0.008852537 0.13463986 -0.1264822 0.053442232 -0.03447377 0.051042452 0.014704683
0.014270608 -0.16739343 -0.14801349 -0.129038 -0.015156096 -0.115866505 -0.1292359 0.030278658
0.07162753 -0.17719012 -0.006023607 0.009773567 -0.15208101 -0.020877393 0.015232481 0.014519185
0.0188192 -0.14191431 0.059900437 0.09595811 -0.04605601 -0.139071 -0.06609296 -0.049477313
-0.096607655 -0.15124978 0.060460545 -0.11839207 -0.16287954 0.030986505 0.1237063 0.054595206
0.07011753 -0.036073886 -0.16433053 -0.007189598 0.16625966 -0.07784171 0.009265869 0.1614621
0.027949741 0.00799701 0.0777111 -0.17431225 -0.033863205 -0.12161523 0.1245186 -0.045343913
0.04788559 0.08942986 0.026021814 0.04965799 -0.0412612 -0.09564931 0.034826744 0.10248984
0.1517651 0.12384627 -0.11919749 0.010082526 0.012798543 -0.06102288 -0.17319328 -0.13197869
0.04935864 0.018851697 -0.10744076 0.08663338 0.015544949 -0.07263003 0.1367511 0.14113964
-0.13016231 -0.12708381 -0.01593183 -0.081644215 -0.06425506 -0.13132101 -0.08389504 -0.17989214
0.0679337 0.15568295 -0.14215526 -0.084833056 -0.05952279 0.08257967 -0.053791035 -0.15506679
0.116721496 -0.032114558 -0.1295102 -0.0014930618 -0.055970494 -0.1330095 -0.053998623 -0.16102573
0.11821448 -0.10613754 0.073206745 0.034566283 0.075873174 -0.07831481 0.032030992 -0.089235336
0.1597336 -0.1280918 -0.10035229 -0.049899515 0.038834214 0.088352196 0.11491268 -0.115224876
-0.03354695 -0.11169669 -0.058967546 -0.07073189 -0.039208516 -0.026359193 0.053185437 -0.1836156
-0.07414714 -0.08584687 -0.03342064 -0.104763016 -0.023813127 -0.090954505 -0.0037406187 -0.06987613
-0.10677431 0.13890351 -0.106799655 -0.045601867 0.12976095 -0.17448047 -0.013625317 -0.14352912
0.09662491 0.03362549 -0.088236175 -0.030657379 -0.011445127 -0.058240287 0.051527742 -0.10976688
-0.073187426 0.10356765 0.04206303 -0.005993732 -0.17995095 0.069824204 0.04199463 0.023017552
0.019676572 0.09432236 -0.053361088 -0.17137639 -0.018160624 -0.1313929 0.12169481 0.02107864

sequential/dense_2/MatMul f4 [64, 64]
00000000: 6eff 123c 5184 4fbe ec26 60be be33 233e
00000010: 9d4f 0dbc 5142 2fbd 9511 4e3e f745 af3d
00000020: 0402 d93d d692 753e 2cb8 f0bd 9c98 dc3c
00000030: ddb2 80bd f624 60be 2fef 33be bccc 893d
00000040: 23e6 00be 2835 c53c 965c 063e de76 36be
00000050: 8d03 963d 1afe 52be 7434 5d3e fe7d 1fbd
00000060: e6af 013e bda6 0d3d dcfc 2a3d 2054 46be
00000070: a7d8 dfba 9bf5 8ebc 7f41 543e edba 213e
00000080: f080 1fbe e923 673e a757 e23d ab2b 243e
00000090: 7a4a f7bd 60e8 3f3e 30de 20be 0e54 bf3d
000000a0: 37b5 acbd add5 213e fa2c 483d 0556 39bd
000000b0: 13d4 22bd 084c a4bc 32fb 5b3d ec7c 0e3e
000000c0: 0786 133d d727 e4bd 8548 b83d fd2d fa3d
000000d0: b421 12be adab 1ebe 26f1 a03b 2991 1ebe
000000e0: d2d3 363e 0a60 c6bd 74d9 a53c a4be 243e
000000f0: 2ff1 3bbd 33c0 d0bd 1db5 463d 2a43 8c3d
00000100: 94d0 a3bc c72e 253d 1a32 12be 84c9 0fbd
00000110: 09b6 1b3e d444 75bd 0ac1 323e 9da3 66bc
00000120: b591 06be c8f3 123e d943 443e d4af 403e
00000130: 1c79 c83d 556b 9abd caa8 263e da5d 40be
00000140: a5cf c9bd e3df de3d 748a 4f3e cb85 5ebe
00000150: faed 893d 4ed8 44be 27a7 42be 9a6d dabd
00000160: dc9f 1bbe 7ae2 dabd c7ed fdbd 8015 18be
00000170: 822a 3abe 409c 3e3e c492 263e 656a 493d
00000180: 3e8b 8c3d f3d2 3fbe ae1e 4bbd 8e82 15be
00000190: d2f2 073e 6572 11bd 0829 1cbe cc1d 823d
000001a0: d76b be3c bef0 d5bd aeec 1fbc 7158 403e
000001b0: 6afe 603e 594c 5bbe 81ce 48be 18e6 613e
000001c0: 1d75 2bbe 923b 8f3d c447 853c 3845 0ebe
000001d0: 9617 2dbe 2d8e 2bbe 586c 5cbe 677a 7fbd
000001e0: a2d5 3e3e 56ce aebb 3685 a73c 76ad c63d
000001f0: ec66 373e 80f1 c5bd c392 eabd 8e44 32bc
00000200: 80fc 1dbe 95f8 0dbe f2e6 c0bd b862 a43d
00000210: c97d 4dbd 31b9 5fbe 0d8e 21bd 98e1 3f3e
00000220: b28b b03d 8e49 933d d499 7dbd f08d 0bbe
00000230: 1bc3 b73d d932 32be 5655 d13c 3f8a 86bc
00000240: 4321 cf3d eeae 2bbe 7ec5 24be dd59 1dbe
00000250: 58a4 76bd 6244 20bb 9da7 8f3c d757 f43c
00000260: 94ad 1c3e ca51 4cbe cd34 59bd b81a 8b3d
00000270: d6c2 443e 7b44 0abe d02a 323e 0ad3 3c3e
00000280: b228 52be 4056 1f3e 0e49 89bd 1a69 d43d
00000290: 24f7 31be 8348 ca3d 46f7 60bd 55ed 12be
000002a0: 9955 f93d 59eb 2f3e 95b1 f2bc 985f 1fbe
000002b0: 9cbd d13a a963 efbd fd94 853d bb22 54bd
000002c0: 0d96 15be 947c 283d 940e be3c 41d8 213e
000002d0: bffb 12be 23c8 35be f290 47be 9c86 0dbe
000002e0: bc55 853c 878a ad3d f6aa 69be a495 b7bd
000002f0: d23c abbd 78cf a9bd edca 24be 9fc5 65be
00000300: 05b3 603d 93aa 8a3d a65f 21bd 0a24 18be
00000310: 0a48 acbd f522 10be 902a 2d3e dbbd b8ba
00000320: 9f63 bebd 6231 ec3d 4128 91bd 797b adbd
00000330: cfad 29be 5b65 733c 24c3 0e3e 8b36 dd3b
00000340: e313 013e a9ed dfbd c5a4 4abe fb42 423e
00000350: e321 efbc b9f6 3f3e 394c 8f3d a5a9 17bd
00000360: e1f4 01be 520b e6bd 0f35 37be 469e 05be
00000370: 784e 663c d737 1d3e 6b4d 71bd 2f29 d7bd
00000380: 05c2 d03d 6965 c8bd 3dba 473b 1517 5a3e
00000390: 45eb 063d 6c0f 37be 0596 abbd 957e 533d
000003a0: 016e 123d 73fb 09bc ba45 423e 125b fc3d
000003b0: df15 ee3d c32f f9bc 6ea6 193e 9958 50bd
000003c0: 84f1 723d 495c cebd 49c5 8c3d 88df 883d
000003d0: 40bb 0abe 4940 33be c5b5 e13c 5137 bebd
000003e0: b012 e73c 165b bd3c 6167 233e 367a ae3c
000003f0: e80d 933c e3f8 973d f064 2d3c aa61 dd3d
0.008972032 -0.20265318 -0.21889848 0.15937707 -0.008624938 -0.042787854 0.20123895 0.085582666
0.105960876 0.23981795 -0.11753878 0.026928239 -0.062841155 -0.218891 -0.1757171 0.06728503
-0.1258779 0.024073198 0.13121256 -0.17818782 0.07324896 -0.20604745 0.2160204 -0.038938515
0.12664756 0.034582842 0.04174505 -0.19368029 -0.0017078117 -0.017451098 0.2072811 0.15793963
-0.1557653 0.22572292 0.110518746 0.16032283 -0.12074752 0.18740988 -0.15709758 0.09342204
-0.084330015 0.15804167 0.048871018 -0.04524805 -0.03975303 -0.020055786 0.053706355 0.13914841
0.03601649 -0.11140411 0.08998207 0.12215803 -0.14270669 -0.15495177 0.0049115596 -0.15485062
0.1785424 -0.09686287 0.020245291 0.16088349 -0.045884307 -0.10192909 0.048512567 0.06848748
-0.019996919 0.040327813 -0.14276925 -0.03510429 0.1520616 -0.059880093 0.17456451 -0.014077094
-0.1314152 0.14350808 0.19166507 0.18817073 0.09788725 -0.07540003 0.16275325 -0.18785802
-0.09854058 0.10882547 0.2026766 -0.21730725 0.067348436 -0.19223139 -0.19009076 -0.10665436
-0.151977 -0.10687728 -0.12398868 -0.14851952 -0.18180278 0.18614292 0.16266924 0.04917373
0.06862496 -0.18732814 -0.049589805 -0.14600584 0.13276222 -0.035509486 -0.15250027 0.063533396
0.023244781 -0.104463086 -0.009761019 0.18783738 0.21972051 -0.21415843 -0.19610025 0.2206043
-0.16743894 0.06993784 0.016269572 -0.13893592 -0.16903529 -0.16753455 -0.21525705 -0.06237259
0.18636182 -0.0053346558 0.020449262 0.09701054 0.17910355 -0.09665203 -0.11453774 -0.0108806025
-0.15428352 -0.13864358 -0.09419049 0.080266416 -0.050168786 -0.21847989 -0.03944211 0.18738401
0.08620395 0.07191764 -0.06191428 -0.13628364 0.0897276 -0.1740221 0.025553387 -0.016423343
0.10113766 -0.16765949 -0.16090962 -0.15366311 -0.060215324 -0.0024454822 0.017535979 0.029827042
0.1530059 -0.19953075 -0.05302887 0.067922056 0.19214949 -0.13502686 0.17399144 0.1843988
-0.20523337 0.15560246 -0.06703387 0.10371609 -0.17379433 0.09877112 -0.05492332 -0.14348347
0.121745296 0.17179622 -0.029625693 -0.1556381 0.0016001943 -0.116889305 0.06522558 -0.051790934
-0.14608021 0.041134432 0.02320031 0.1580515 -0.14353846 -0.17752127 -0.19488886 -0.1382088
0.016276233 0.084736876 -0.22819123 -0.089640886 -0.0836121 -0.08291525 -0.16093035 -0.22438668
0.054858226 0.06770816 -0.039397858 -0.14857498 -0.08412178 -0.14075835 0.16910768 -0.0014094667
-0.09296345 0.115328565 -0.07087756 -0.08470816 -0.16570209 0.014855708 0.13941628 0.006750887
0.12605242 -0.10934002 -0.19789417 0.18970864 -0.029190963 0.18746461 0.0699696 -0.03702702
-0.1269107 -0.11232628 -0.17891334 -0.13048658 0.014056794 0.15353332 -0.058911722 -0.10505902
0.10193256 -0.097849675 0.0030475997 0.21297868 0.032939214 -0.17876977 -0.08378223 0.05163439
0.03574944 -0.008421767 0.18971911 0.12322058 0.11625265 -0.030418282 0.15004894 -0.050865743
0.05931236 -0.10076196 0.06873567 0.0668326 -0.13547993 -0.17504992 0.027552495 -0.092878945
0.028207153 0.023114722 0.15957405 0.02129851 0.017950967 0.07420518 0.010583147 0.108096436

sequential/dense_3/MatMul f4 [10, 64]
00000000: 2ec3 363e 518d 393e ce98 f9bd 9c1a eabd
00000010: ac35 3cbd b07f b83d 2736 81be 7282 b3bd
00000020: 89f2 a93d 74ad 743e a628 183e a637 953e
00000030: 57ba 823d 3b44 29bd 442f c3bd 1f88 75be
00000040: d2ec 61bd a7fd 8f3e e346 8ebe edab 60be
00000050: 6e0c 9bbe 4bbb 553e 56ca 6cbe cf0e 66be
00000060: 1273 b0bd e44f 6fbe c273 973e 5825 2f3e
00000070: b573 72be d2f9 fa3b 271b fa3b bdab 6b3c
00000080: d484 a13e 8dc6 7dbe 534d 43bc 754c 33be
00000090: a22e 153e bf2e a5bd 20e9 3dbe cad5 9dbd
000000a0: 1ce7 a83d 6e2d 05be 6047 a1bd 76aa 8f3d
000000b0: 4c2f 62bc c924 a3be dc96 0a3d ff41 7cbd
000000c0: be98 cbbd 1193 843d 9369 86be bd3e 503e
000000d0: c317 97be 26b1 083d a5a5 29be a7af 893e
000000e0: 7b92 01be 648f 76be 26dd dd3c 0c64 21be
000000f0: d33e 003e 21bc d9bd 7dd2 05bd 58ad 0f3d
00000100: acd4 8cbe 2b91 01be ffea 28be d0e9 58bd
00000110: da87 fab9 2f76 88be 1028 143e 5c19 8f3e
00000120: 11e2 9abe de55 acbb dc23 0abd feac 3cbd
00000130: b62d 95be afd3 983d 3f09 51be e9af 543e
00000140: 3022 873e 37cc ab3d 34d2 8e3e 76bf cabd
00000150: 7f81 54bd 29a5 89be 43ab 15be 07ff 54bd
00000160: 8ad6 51be 6450 513c 22d9 753d 8e11 2ebc
00000170: 10a3 7c3c a785 453d fe14 df3c 425b 80be
00000180: c796 31be 33e5 9f3d d0c2 b8be 9de3 3dbe
00000190: 4b17 9dbe 14d7 bfbc a278 97bc f4b0 4d3e
000001a0: 8112 07be c328 6abd e7e2 603e 96ab 62be
000001b0: 8afa 823e b5f7 0b3e f518 c6be bac0 19bd
000001c0: 0aaa 703e 4310 913e e596 6e3e f80e 36bd
000001d0: f200 4cbe f530 f4bd 3db8 563e 3395 a5bd
000001e0: 4656 99be 6206 4fbd 29d6 54be 9344 183e
000001f0: ed6a 82bd b5df 73bd 4ec4 bb3d cc63 0a3e
00000200: 6b55 b3bd 4fe7 aa3d b299 a0bd 1480 35be
00000210: 9248 343d d8e4 8abe 5d73 cabd d309 a6bd
00000220: 9d2a 92be 9cd3 36be 3861 903d e98f 673b
00000230: c96d 643e 1cd5 a3bd c91b 383e b58f 6fbe
00000240: e1f5 983d 4571 483e fa46 6b3e 8d11 3b3d
00000250: 42ac 0c3d 396e 1c3e be76 d4bc 36eb c53b
00000260: 2ab9 8c3d 617e 8ebe bb72 163e bc1d b63d
00000270: 7ed3 093e 55bb 98be 891e 41bd 68fb c93d
00000280: 1048 743e 8ca9 13be 09ec 1dbe 44ca c13d
00000290: 3600 90be 86b2 403c 8349 5bbd cb70 82bd
000002a0: 99f0 153e fdb3 03bc c9c4 3b3e 5945 16be
000002b0: 91d3 54be d42d 863e 2976 ebbd 447e 6c3e
000002c0: af8c df3d a728 943d 44fb 57bd 3056 49be
000002d0: c27a 0cbe 26f0 8fbe 1d87 d33d c2d3 383e
000002e0: c4b9 ecbd a6d0 6dbe f14c 02be 8c07 823c
000002f0: f30f c63d a8b0 933e b216 d63d 70da 033d
00000300: 2818 833e e8ea f8bd f719 3fbe df5e 6c3d
00000310: 44f8 853e 0d60 113e 2cee 6dbe 4b2e 883d
00000320: 43cc 343e d5a9 513d 41fa 29be e5b2 7abe
00000330: 201b 16be d937 7d3e 0db7 74be c911 1d3e
00000340: 58f7 873a 3e04 ae3d 272e 60bd e724 ffbd
00000350: ff32 e13d 32f4 44be 67d5 85be 5e78 dbbd
00000360: 8f61 92bd 942d 9d3e 47c0 f13d c8c1 4d3e
00000370: 90c0 1d3c e10f 92bd 37e5 0bbe acd3 b83d
00000380: f5b9 15be acfc 5a3e 2b28 0b3d 22c8 383e
00000390: ac1f a23d f5a1 b53d 0660 12be 00ba 143e
000003a0: 5c88 8cbc 28f9 c33d 745a 9c3e a384 73ba
000003b0: 954f acbe 5e56 f53d 66a7 233e 2c0d 1a3e
000003c0: 7f96 b53d de8f 15be 67d1 b03c a4be 90be
000003d0: 7d8a 223e 8594 8f3e 2f9d 72be fa7a b63d
000003e0: 4a17 1cbc 3f46 07be af94 793e bca0 553d
000003f0: 527b 6e3d 31b8 87bd a1b9 b5bc f960 06be
0.17847893 0.18120314 -0.12187348 -0.114308566 -0.045949623 0.090087295 -0.25236627 -0.08765115
0.08298213 0.23894292 0.14859256 0.2914402 0.06383198 -0.041324835 -0.095304996 -0.23977707
-0.05515749 0.2812321 -0.27788457 -0.21940584 -0.3028292 0.20872228 -0.2312406 -0.22466587
-0.08615698 -0.2337032 0.29580504 0.1710409 -0.23676951 0.0076591754 0.0076326313 0.014384207
0.31546652 -0.24782772 -0.011920291 -0.17509635 0.1456857 -0.08065557 -0.18545961 -0.07706793
0.082472056 -0.13005611 -0.07874942 0.07014935 -0.013805222 -0.31864002 0.033835277 -0.061586376
-0.09941243 0.06473363 -0.26252422 0.20336433 -0.29510316 0.033372067 -0.16567095 0.26891825
-0.12653534 -0.24078137 0.02708299 -0.15760821 0.12523966 -0.10631586 -0.03267144 0.035077423
-0.27506006 -0.12653033 -0.16495894 -0.052957356 -0.00047784933 -0.26652667 0.14468408 0.27949035
-0.302506 -0.0052592596 -0.033725604 -0.046063416 -0.29136437 0.074622504 -0.20413683 0.2077023
0.2639327 0.0838856 0.27894747 -0.098997995 -0.05188131 -0.2688382 -0.14616112 -0.052001026
-0.20491996 0.012775514 0.060021527 -0.010624303 0.0154197365 0.048223164 0.02723169 -0.25069624
-0.17342673 0.07807388 -0.3608613 -0.18543859 -0.30681834 -0.023417987 -0.01849014 0.20087034
-0.13190652 -0.05716778 0.21961556 -0.22135767 0.2558177 0.13668711 -0.38690916 -0.037537314
0.23502365 0.2833272 0.23299749 -0.04444787 -0.19922236 -0.119234 0.20968719 -0.08085098
-0.29948634 -0.050543196 -0.2078482 0.14869909 -0.06368051 -0.059539516 0.091683015 0.13514632
-0.087565266 0.083449 -0.07841815 -0.17724639 0.04401452 -0.2712772 -0.09885285 -0.081073426
-0.28548136 -0.1785416 0.07049793 0.003533358 0.22307505 -0.07999632 0.17979349 -0.23394664
0.07468773 0.19574459 0.22976294 0.045671035 0.034343965 0.15276422 -0.025935527 0.006040002
0.06871255 -0.27830794 0.14692204 0.0889239 0.13459584 -0.29830423 -0.04714826 0.09862405
0.23855615 -0.14420146 -0.15422072 0.09462407 -0.2812516 0.011761313 -0.053536903 -0.0636917
0.14642562 -0.008038518 0.18336786 -0.14674892 -0.20783831 0.2620684 -0.11497147 0.23095042
0.10915505 0.07234316 -0.05272986 -0.19661784 -0.13718703 -0.28112906 0.10328505 0.18049529
-0.115588695 -0.23224124 -0.12724663 0.01587274 0.09671011 0.28845716 0.104535475 0.03219074
0.25604367 -0.1215418 -0.18662249 0.057707664 0.26165974 0.14196797 -0.23235387 0.06649455
0.17656045 0.051187355 -0.1659937 -0.24482305 -0.14658785 0.24728335 -0.23897953 0.15338816
0.0010373397 0.08496903 -0.054731514 -0.124582104 0.10996055 -0.19233778 -0.26139376 -0.107163176
-0.07147514 0.30698836 0.11804252 0.20093453 0.00962843 -0.07131935 -0.13661657 0.09024748
-0.14621718 0.21385449 0.033973854 0.18045095 0.07916197 0.088687815 -0.14294443 0.14524078
-0.017154865 0.09569007 0.3053776 -0.0009289479 -0.33654466 0.11979364 0.15981826 0.15044087
0.088665955 -0.14605662 0.021584226 -0.28270447 0.15873142 0.28043 -0.23692773 0.08910175
-0.009527037 -0.1321039 0.24373125 0.05215524 0.058223076 -0.066269286 -0.022183241 -0.1312293
